traffic_gru_weights.pth (torch, 644064 bytes, 16 tensors)

gru.weight_ih_l0 f4 [384, 5]
0	0xbc8a2942	-0.016865376
1	0x3c382d07	0.011241204
2	0xbd4206c9	-0.047369752
3	0x3bcf5054	0.0063267145
4	0xbd974be8	-0.07387525
5	0xbc17ebd4	-0.009272534
6	0x3c98840e	0.018617656
7	0x3db40bb6	0.08791296
8	0x3cc17e86	0.023619901
9	0xbc5d685e	-0.013513653
10	0x3d0a2b80	0.03373289
11	0xbd4c855c	-0.04993187
12	0x3d3d5bb7	0.046230044
13	0x3cf78f9d	0.030219847
14	0x3d51e0c6	0.05123975
15	0x3dc706d9	0.09718103
16	0xbd55b577	-0.05217501
17	0x3c34662f	0.011010691
18	0x3cee2d4a	0.02907433
19	0x3c72fd45	0.014830892
20	0xbc859182	-0.016304735
21	0xbd5af05d	-0.053451885
22	0xbda222ad	-0.0791677
23	0xbdb01fce	-0.08599816
24	0xbdbf1938	-0.09330982
25	0xbd6f4a2e	-0.058420353
26	0xbdd711ec	-0.10501465
27	0xbdb1d321	-0.08682848
28	0xbd75de5c	-0.06002651
29	0x3d593562	0.053029425
30	0x3c324ccd	0.010882569
31	0x3dcc5018	0.09976214
32	0x3c35a57d	0.011086819
33	0xbc314c4d	-0.010821414
34	0x3bce2e67	0.0062921527
35	0xbdd7ad2b	-0.10531076
36	0x3e015729	0.12630905
37	0xbd85a40c	-0.0652543
38	0x3d024f65	0.031813998
39	0xbcb6f076	-0.022331458
40	0x3cd94191	0.026520522
41	0x3dc64a86	0.09682183
42	0xbd66bd3d	-0.056332815
43	0xbd78ccd1	-0.060742203
44	0xbcb6725c	-0.022271328
45	0x3bbe5efd	0.0058096633
46	0xbd06f31c	-0.03294669
47	0x3d343535	0.043996055
48	0xbd823a31	-0.063587554
49	0xbaead18d	-0.0017915234
50	0xbdd7000f	-0.10498058
51	0x3dc1a948	0.09456116
52	0xbdb3171a	-0.08744641
53	0xbc36e736	-0.011163523
54	0xbd5567d9	-0.05210099
55	0x3d1c4b10	0.038157523
56	0x3c243362	0.010022016
57	0xbca6126d	-0.020272458
58	0x3d54de5d	0.051969875
59	0x3d93727d	0.07199571
60	0xbcaeea07	-0.021351827
61	0xbe18ef09	-0.14934935
62	0x3cd1d9e4	0.025616594
63	0x3d84c8d2	0.06483616
64	0x3d5f1cb4	0.054470733
65	0x3dc6b1ed	0.097019054
66	0x3caecf71	0.02133915
67	0xbcba17c0	-0.022716403
68	0xbd3250f7	-0.043534245
69	0x3dac0a79	0.08400435
70	0x3de107e1	0.10987831
71	0xbd9a8636	-0.0754513
72	0xbd3d905e	-0.046280257
73	0x3d67b9d3	0.0565737
74	0xbd360d1e	-0.044446103
75	0x3bbc6399	0.0057491777
76	0xbdee6efc	-0.11642262
77	0x3d346f30	0.04405135
78	0xbbec37cc	-0.0072088
79	0xbce3443d	-0.0277425
80	0xbcabe557	-0.020983381
81	0xbd9a73c9	-0.075416155
82	0x3da05069	0.07827837
83	0x3d354703	0.044257175
84	0x3deade31	0.11468161
85	0xbd8f72e2	-0.07004334
86	0xbba9e23c	-0.00518444
87	0x3d69d647	0.057089116
88	0xbe01eac9	-0.1268722
89	0xbd7a9e97	-0.0611864
90	0xbd92692e	-0.07148968
91	0x3dbfc1d6	0.09363143
92	0x3d255cd8	0.040371746
93	0xbd0f57fa	-0.03499601
94	0xbd451cb7	-0.048123088
95	0xb85f96e5	-5.3307875e-05
96	0xbd213ec1	-0.039366487
97	0x3bc7ba38	0.006095197
98	0xbd8f3fbd	-0.06994579
99	0xbd921946	-0.07133727
100	0x3ca710a1	0.020393671
101	0x3d5859ce	0.05282002
102	0x3da78d39	0.08181233
103	0x3cc4beb2	0.024016712
104	0xbd44ac67	-0.04801598
105	0x3d557393	0.052112173
106	0x3c973b8d	0.018461013
107	0x3d121d75	0.035672624
108	0xbd1b78d1	-0.037957016
109	0xbc683d66	-0.014174795
110	0x3d04c187	0.032411125
111	0x3ce2e559	0.027697252
112	0x3d18ba54	0.03728707
113	0xbd8f8069	-0.07006914
114	0x3d2ac97c	0.041696057
115	0xbd32db30	-0.043666065
116	0x3c3f126c	0.011662107
117	0xbd3f2d2c	-0.04667394
118	0xbcfe2d96	-0.031027596
119	0x3d58c557	0.052922573
120	0x3df5eefe	0.12008475
121	0xbd557467	-0.052112963
122	0xbced723b	-0.028985133
123	0x3c07fc87	0.008299953
124	0x3dd36f40	0.10323954
125	0x3cc5f46d	0.024164403
126	0xbe02df0a	-0.12780395
127	0x3d82af86	0.06381135
128	0xbd0eee1c	-0.034895048
129	0x3d55e21e	0.052217595
130	0xbd0a052f	-0.03369635
131	0x3c6195e4	0.013768647
132	0xbd34aa43	-0.044107687
133	0xbcfbb9cb	-0.030728241
134	0xbd9667af	-0.07343995
135	0xbdb2726d	-0.08713231
136	0x3d8aba00	0.06773758
137	0x3d74a8b2	0.059731193
138	0xbdc08505	-0.094003715
139	0xbddf9ad3	-0.10918202
140	0xbd32c267	-0.043642428
141	0x3d641289	0.05568174
142	0x3db75450	0.08951628
143	0xbd9dec70	-0.077111125
144	0x3cc7eecc	0.02440586
145	0xbce5ead4	-0.028066076
146	0x3df03c7a	0.11730285
147	0xbd84bc72	-0.064812556
148	0xbbf2d0a5	-0.0074101263
149	0xbda37d75	-0.079829134
150	0xbe1332f5	-0.14374907
151	0x3d8f59fc	0.06999585
152	0xbdc7fbaf	-0.09764802
153	0xbd64ce0c	-0.055860564
154	0xbd8f3422	-0.069923654
155	0xbdc88b9a	-0.09792252
156	0x3da10d08	0.07863814
157	0x3d1fe200	0.03903389
158	0x3d22fecf	0.039793786
159	0xbb85c60c	-0.004082447
160	0xbdb6fdfd	-0.08935163
161	0xbd95c4f6	-0.07312958
162	0xbb8c118d	-0.004274553
163	0xbc8fa002	-0.017532352
164	0xbdb85c73	-0.09002008
165	0x3da48030	0.08032262
166	0xbdccd046	-0.100006625
167	0x3c1e1ca0	0.009650379
168	0xbd7848ae	-0.060616188
169	0x3d3cb0c6	0.04606702
170	0xbc3d850c	-0.011567365
171	0x3d8a70eb	0.06759819
172	0x3b5ba79d	0.0033516653
173	0xbd97f154	-0.074190766
174	0x3d9a5b23	0.07536914
175	0xbdb6a2c6	-0.08917765
176	0x3d55558e	0.052083544
177	0xbdaae5e2	-0.08344628
178	0x3d1d6507	0.038426425
179	0x3c3f545f	0.0116778305
180	0x3c91460c	0.017733596
181	0xbc6bf3d6	-0.014401397
182	0x3d828b57	0.06374233
183	0x3d9d6155	0.0768458
184	0xbc95f5c2	-0.018305663
185	0xbc46d3d5	-0.012135466
186	0xbc881b60	-0.016614616
187	0x3d95ed7a	0.07320686
188	0x3ddad8f2	0.1068591
189	0x3dc35ec4	0.095395595
190	0x3d0f1ca1	0.034939412
191	0x3c908178	0.01763986
192	0xbd975b60	-0.07390475
193	0xbdab760d	-0.08372126
194	0x3d41b93f	0.047295805
195	0xbde641f9	-0.11243052
196	0x3d12bdf3	0.03582568
197	0x3d3c36c6	0.045950674
198	0xbdddf67b	-0.10838028
199	0xbdb8a72b	-0.0901626
200	0xbdf6bf0c	-0.12048158
201	0x3dd9aa59	0.10628194
202	0xbc08a521	-0.008340151
203	0x3ccb3545	0.024805674
204	0xbd2aa6ee	-0.041663103
205	0xbd99c889	-0.07508952
206	0x3df24832	0.118301764
207	0xbddeab8e	-0.10872565
208	0xbdb9c6bf	-0.09071111
209	0x3c9de3dc	0.01927369
210	0x3de0eb80	0.10982418
211	0xbd70b123	-0.05876268
212	0xbdb42810	-0.08796704
213	0x3b89bd99	0.00420351
214	0x3beebf2c	0.007285973
215	0x3d110bea	0.035411753
216	0x3cc3a526	0.02388246
217	0x3ca264dd	0.019823486
218	0xbd2cfd75	-0.042233903
219	0xbaa3adcc	-0.0012487709
220	0xbb84c7ef	-0.0040521543
221	0x3d64cbae	0.055858307
222	0xbdd9795c	-0.106188506
223	0xbd4f9bb8	-0.050685614
224	0xbd6a3ccb	-0.057186883
225	0xbcf6b8bc	-0.030117385
226	0x3d0e2616	0.03470429
227	0x3d348ca0	0.044079423
228	0x3da52c20	0.08065057
229	0x3da6be8c	0.08141813
230	0xbcd5d9a2	-0.026104752
231	0xbd3e04a2	-0.046391137
232	0x3b6f13a0	0.0036480203
233	0x3c90d9a8	0.017681912
234	0x3d04cf2c	0.032424137
235	0x3dda86fa	0.10670276
236	0xbc9740b0	-0.018463463
237	0x3d8f23c3	0.06989243
238	0x3d84e3d4	0.06488767
239	0x3dc456cd	0.095868684
240	0xbdd01025	-0.10159329
241	0x3ce92358	0.028459236
242	0x3c9da196	0.01924209
243	0x3ba972da	0.005171162
244	0xbd155bf1	-0.036464635
245	0x3da33a52	0.07970108
246	0xbca05d5c	-0.019575767
247	0xbd24d3ca	-0.04024104
248	0x3b061d3b	0.00204642
249	0x3db5a5be	0.088695034
250	0xbd78fa38	-0.060785502
251	0xbd63d19a	-0.055619814
252	0x3d853858	0.06504887
253	0x3d3d06b5	0.046148974
254	0xbd8d72d8	-0.0690667
255	0x3d7f4986	0.062325977

gru.weight_hh_l0 f4 [384, 128]
0	0xbd82de2c	-0.06390032
1	0xbd41984f	-0.047264393
2	0x3cf8cbdf	0.03037065
3	0xbd7b2f86	-0.06132462
4	0xbd173367	-0.036914255
5	0x3c13d4dd	0.0090229185
6	0x3b8eae59	0.00435428
7	0xbc4f654c	-0.012658428
8	0x3d55ed82	0.05222846
9	0x3cc9d0d8	0.024635717
10	0x3cfcc1fa	0.030854214
11	0x3cc2db41	0.023786189
12	0x3c741981	0.014898659
13	0xbd608ba8	-0.054820687
14	0xbdb51e19	-0.08843631
15	0x3d25fc25	0.040523667
16	0x3cdfab10	0.027303249
17	0xbc9362af	-0.017991392
18	0xbd270a7a	-0.040781476
19	0x3bdb59a8	0.0066940375
20	0xbd9fcd7e	-0.078028664
21	0x3d4a3779	0.04936931
22	0x3d2b63eb	0.041843336
23	0x3d8468c7	0.06465297
24	0xbcc1a549	-0.023638384
25	0xbc45844a	-0.012055466
26	0xbcaecf9b	-0.021339228
27	0x3bff4c1c	0.0077910554
28	0xbcface84	-0.030616052
29	0xbda95153	-0.082674645
30	0xb9c8238b	-0.00038173454
31	0x3d71ab2e	0.05900114
32	0xbdb09a09	-0.0862313
33	0x3c6a6e53	0.01430853
34	0x3d043289	0.032274757
35	0xbd3c505a	-0.045975067
36	0xbd757eba	-0.05993531
37	0x3d5c094b	0.0537198
38	0xbc1165ad	-0.008874339
39	0xbdb56b50	-0.08858359
40	0xbdbd771e	-0.092512354
41	0xbc7894b8	-0.015172176
42	0x3cc288c1	0.02374685
43	0xbd030f1b	-0.031996828
44	0x3d3eedc0	0.046613455
45	0x3d9ebb76	0.07750599
46	0x3c8bf104	0.017082699
47	0x3d859bb1	0.065238364
48	0x3d4a8f75	0.049453218
49	0xbc133068	-0.008983709
50	0xbd943bb3	-0.07237949
51	0x3d228118	0.039673895
52	0xbb1d4c8c	-0.0024001924
53	0xbd8c0957	-0.06837719
54	0xbdb34be5	-0.0875471
55	0xbd13ae00	-0.03605461
56	0x3daf932d	0.085729934
57	0x3d018009	0.031616244
58	0xbdaed39c	-0.08536455
59	0x3bcf7e2a	0.0063321786
60	0xbda32d83	-0.07967665
61	0xbd0c42e6	-0.034243487
62	0xbd82c83c	-0.06385848
63	0xbd07571d	-0.033042062
64	0x3d26c022	0.040710576
65	0xbd29527f	-0.04133844
66	0x3d24add5	0.04020484
67	0xbd97f04e	-0.07418881
68	0x3dab5fc7	0.083678775
69	0xbca52f2e	-0.020164099
70	0x3daebce3	0.08532121
71	0x3dd09360	0.101843596
72	0x3cff7191	0.031182082
73	0x3cdbcfc5	0.02683247
74	0xbd8b3df9	-0.0679893
75	0xbbccd7d2	-0.0062513137
76	0xbc39b9d0	-0.011335805
77	0x3ba41180	0.005006969
78	0xbc180fa9	-0.009281077
79	0x3d031d89	0.03201059
80	0xbcc62c04	-0.02419091
81	0x3d9c5db0	0.07635057
82	0xbd2079ac	-0.039178535
83	0x3d8b950e	0.06815539
84	0x3d7f34ad	0.062306095
85	0x3dc14bda	0.09438296
86	0xbc9819c3	-0.018566972
87	0xbc9f4684	-0.019442804
88	0xbdcb37aa	-0.099227265
89	0xbba2df16	-0.0049704416
90	0x3da6ee06	0.08150868
91	0x3cec36af	0.028834669
92	0x3d9a6e07	0.07540517
93	0xbd31b50e	-0.043385558
94	0xbd94e1e6	-0.07269649
95	0x3d336587	0.043797996
96	0xbcc02e65	-0.023459623
97	0xbcf07fab	-0.029357752
98	0x3d1e357a	0.038625218
99	0xbd778aa9	-0.06043497
100	0xbd7fa5d6	-0.062414013
101	0xbcadb8ad	-0.021206224
102	0x3d73bd92	0.05950696
103	0x3ddd9c1e	0.108207926
104	0xbd375fa1	-0.044768933
105	0xbd11c1da	-0.035585262
106	0x3b9c63c1	0.004772634
107	0xbd98bf9d	-0.07458422
108	0xbdcc51cc	-0.09976539
109	0x3daf9af7	0.08574479
110	0x3dd31c53	0.10308137
111	0xbd66660c	-0.056249663
112	0xbab993c7	-0.0014158421
113	0x3cd4e846	0.025989663
114	0x3c59f29c	0.0133024715
115	0x3d23af61	0.039962176
116	0xbd242425	-0.040073533
117	0x3d528177	0.051393
118	0xbd1a69e3	-0.037698638
119	0x3bf91662	0.007601545
120	0xbd26f389	-0.040759597
121	0x3d407c75	0.04699369
122	0xbdabdfca	-0.08392294
123	0xbdd37cfd	-0.10326574
124	0x3c732648	0.01484067
125	0xbb79420a	-0.0038033747
126	0x3ca9a590	0.02070883
127	0x3dce77da	0.100814536
128	0x3cb92454	0.02260033
129	0x3d887a96	0.066640064
130	0x3d6b186d	0.05739634
131	0xbd5ced18	-0.053937048
132	0x3d7cc131	0.06170768
133	0x3cd2c593	0.025728976
134	0x3c63d174	0.013904918
135	0xbd4e1739	-0.050315116
136	0xbcc69c89	-0.024244564
137	0xbd9cef8b	-0.07662877
138	0x3dad4273	0.0845994
139	0x3ceebc32	0.029142473
140	0x3d714d15	0.0589114
141	0xbd18d062	-0.037308104
142	0xbd4cf72f	-0.05004042
143	0xbdbf0b88	-0.09328371
144	0xbc889c12	-0.016675983
145	0x3cae9650	0.021311909
146	0x3bee4221	0.007271067
147	0x3bb93dbf	0.0056531127
148	0xbda1494d	-0.07875309
149	0xbdaf7dd0	-0.08568919
150	0xbd666370	-0.056247175
151	0xbdb76b89	-0.089560576
152	0x3c5577f5	0.013029088
153	0xbd817cc0	-0.06322622
154	0x3be543aa	0.0069965916
155	0xbc8f5953	-0.017498648
156	0x3d32df90	0.043670237
157	0x3c0864e9	0.00832484
158	0x3da24613	0.07923522
159	0xb9c7bfad	-0.00038099047
160	0xbc670fc8	-0.014102884
161	0x3d2e9336	0.04262086
162	0x3d243a82	0.04009486
163	0x3d3e15a6	0.046407364
164	0xbc959679	-0.018260228
165	0xbd018a87	-0.03162625
166	0xbd5cf3fb	-0.053943615
167	0x3caaba56	0.020840805
168	0x3c96700d	0.018363977
169	0xbd2ebf16	-0.042662703
170	0xbcef4ca7	-0.029211355
171	0x3c94cd4e	0.018164303
172	0x3ba71173	0.0050985157
173	0x3ca573d6	0.020196836
174	0xbd99a107	-0.07501417
175	0x3d54944e	0.051899247
176	0x3cc839ca	0.024441618
177	0xbdc32479	-0.09528441
178	0x3dc6e5c8	0.09711796
179	0x3dc3ae7e	0.09554766
180	0xbbf3b6fd	-0.0074375854
181	0xbbd9fcc4	-0.0066524465
182	0x3d06bba1	0.03289378
183	0x3c165c93	0.009177345
184	0xbd89cfdd	-0.067291
185	0x3db8b319	0.09018535
186	0x3da00c9f	0.07814907
187	0xbd80a80d	-0.06282053
188	0xbcac6c11	-0.021047624
189	0x39532060	0.00020134589
190	0x3d918ff1	0.07107533
191	0xbd651b44	-0.055934206
192	0x3cf70fec	0.03015896
193	0x3d527036	0.051376544
194	0x3ca6ead0	0.02037564
195	0x3d2f29a1	0.04276431
196	0xbd5288b9	-0.05139992
197	0x3d982e1a	0.07430668
198	0xbcbc8db1	-0.023016782
199	0xbcc6345d	-0.02419489
200	0x3a1133dd	0.0005539039
201	0xbd602228	-0.054720074
202	0xbd69f5a1	-0.057119016
203	0xbc81decd	-0.01585331
204	0xbc0216b2	-0.007939981
205	0x3a0e3dff	0.0005426108
206	0x3c745ea4	0.014915142
207	0x3d596b51	0.05308086
208	0xbd30e9a1	-0.043191556
209	0x3ccf9751	0.025340708
210	0x3c15cd49	0.009143182
211	0xbc7a1eaf	-0.015266105
212	0xbd71a1ab	-0.05899207
213	0xbc5c6dad	-0.013453883
214	0x3db41f98	0.087950885
215	0xbd18ef6f	-0.037337717
216	0xbd2057d7	-0.03914627
217	0x3d8ae714	0.06782356
218	0xbd87e6e4	-0.06635836
219	0xbd4f803e	-0.05065941
220	0xbc152198	-0.009102248
221	0xbc175f35	-0.009239008
222	0xbd8127ee	-0.06306444
223	0x3d31c3e0	0.04339969
224	0x3d8b1b11	0.06792272
225	0xbc6fae7f	-0.014629005
226	0x3cde2edd	0.027121956
227	0x3c417f7a	0.011810178
228	0x3d29941f	0.041401025
229	0x3d3001c1	0.042970423
230	0xbcdc2748	-0.0268742
231	0xbc4a354c	-0.0123418085
232	0xbcd4beed	-0.025969947
233	0xbd90d7f5	-0.070724405
234	0xbd81f426	-0.06345396
235	0xbc5dd521	-0.013539583
236	0x39570340	0.00020505209
237	0x3d3a3da2	0.045468934
238	0x3cdc4fb9	0.026893483
239	0xbd565821	-0.05233014
240	0x3c86c983	0.01645351
241	0x3cc26d91	0.023733886
242	0xbda386ed	-0.079847194
243	0x3d0ca1fe	0.034334175
244	0x3cf9b244	0.030480511
245	0xbd9fe9dd	-0.07808278
246	0xbd8b5fbd	-0.0680537
247	0x3d2b1d43	0.041775953
248	0x3d431f73	0.047637414
249	0x3c8c1fbc	0.017104976
250	0x3cf3b27e	0.029748198
251	0xbd9a10fa	-0.07522769
252	0xbdaa95f0	-0.083293796
253	0xbcd44ec0	-0.025916457
254	0xbcac1eb6	-0.021010738
255	0xbd19c7ca	-0.03754405

gru.bias_ih_l0 f4 [384]
0	0x3d9115a1	0.070842035
1	0x3da1ef36	0.07906954
2	0xbd06596a	-0.032800116
3	0xbd8fa91a	-0.070146754
4	0x3d45b52f	0.048268493
5	0xbd6f577a	-0.058433034
6	0xbcf84d4b	-0.030310294
7	0x3d8bf1d3	0.06833234
8	0xbd410157	-0.04712042
9	0x3d77d31a	0.060504057
10	0xbd24e907	-0.040261295
11	0x3c80e889	0.015735881
12	0xbd6183cf	-0.055057343
13	0xbd9893c0	-0.07450056
14	0x3d78daca	0.06075553
15	0x3d915c56	0.0709769
16	0xbd4c0885	-0.049812812
17	0xbc6e9ab6	-0.014563253
18	0x3c0d8015	0.008636494
19	0x3d81bfd4	0.063354164
20	0xbd42b861	-0.04753912
21	0x3d1b1e8e	0.037870936
22	0x3da3b45e	0.07993387
23	0x3d89f0f4	0.06735411
24	0xbd31966b	-0.04335634
25	0x3db4c7a3	0.0882714
26	0xbc937b55	-0.018003145
27	0x3d3ba1d3	0.045808624
28	0x3cac8c9e	0.021063145
29	0x3d9f808f	0.077881925
30	0x3d265717	0.0406104
31	0x3ce2dd7d	0.027693504
32	0x3db60b3f	0.08888864
33	0xbd2288ed	-0.039681364
34	0xbd1b6ccc	-0.037945554
35	0xbcc37b71	-0.023862572
36	0x3bacc2fd	0.005272268
37	0xbdab15d0	-0.0835377
38	0xbc74f553	-0.014951068
39	0x3d66426f	0.0562157
40	0xbd9700b9	-0.07373185
41	0xbd351871	-0.044212762
42	0xbd0f0bfe	-0.034923546
43	0xbced928f	-0.029000549
44	0xbd0fa721	-0.035071496
45	0x3d6cf10a	0.05784706
46	0x3c0fdb7c	0.0087803565
47	0xbd8b0f50	-0.0679003
48	0x3cd90117	0.026489777
49	0x3d80f9e3	0.06297662
50	0x3acc3288	0.0015579024
51	0xbd8f1a6d	-0.06987462
52	0xbd19d48a	-0.03755621
53	0xbd2fdc29	-0.04293457
54	0x3d219e1d	0.03945743
55	0xbc89f065	-0.016838262
56	0xbc4ee5f7	-0.01262807
57	0x3ce788af	0.028263418
58	0xbd514773	-0.05109353
59	0x3d5be7b1	0.053687755
60	0xbc217732	-0.0098550785
61	0xbb0cdc9a	-0.0021493793
62	0xbbb274d0	-0.005446054
63	0x3d787f1e	0.060668103
64	0x3b438d9a	0.002983904
65	0xbc7b8a25	-0.01535276
66	0xbd43408d	-0.047668982
67	0x3c00574f	0.007833316
68	0xb9089e21	-0.00013028878
69	0xbdcbff00	-0.09960747
70	0x3ce572e7	0.028008891
71	0xbd32700d	-0.04356389
72	0xbd1730db	-0.036911827
73	0x3cac89c8	0.021061793
74	0xbd998bae	-0.07497345
75	0xbc6a4ed5	-0.014301022
76	0x3d056276	0.032564603
77	0x3cea6ad8	0.0286154
78	0x3c176d09	0.009242305
79	0x3d51d20c	0.051225707
80	0xbbca2f3a	-0.0061701806
81	0xbd0737d7	-0.033012237
82	0x3dc5fdfb	0.096675836
83	0x3d14dfd7	0.036346283
84	0x3d587d0d	0.052853633
85	0x3d2d4dcc	0.04231052
86	0x3b4dca20	0.0031400993
87	0xbdb920f3	-0.09039488
88	0x3da4e6fc	0.08051869
89	0x3d8b1f11	0.06793035
90	0x3d30d096	0.043167673
91	0x3cedba49	0.029019492
92	0xbcf62c85	-0.030050525
93	0x3d415293	0.04719789
94	0xbccf2c20	-0.025289595
95	0x3d7ab844	0.061210886
96	0xbd9cc4be	-0.07654713
97	0x3c88e2ea	0.016709764
98	0xbc694942	-0.014238657
99	0xbd90e243	-0.07074406
100	0x3c43748f	0.011929645
101	0x3b021623	0.001984962
102	0xbbe05638	-0.0068462156
103	0x3d4d941e	0.050190084
104	0x3dc52f10	0.09628117
105	0xbcab1b5a	-0.020887066
106	0x3d347fea	0.0440673
107	0xbd0e2d33	-0.034711074
108	0xbc86a14f	-0.01643434
109	0xbd7429be	-0.05961012
110	0x3d067520	0.032826543
111	0xbc26ab9d	-0.010172752
112	0xbd81d309	-0.0633908
113	0x3d3821e3	0.044954192
114	0xbda43664	-0.08018187
115	0xbd082b0d	-0.03324418
116	0xbd9e5f30	-0.07732999
117	0x3d9189c7	0.07106357
118	0xbd98a2cb	-0.07452925
119	0xbd10a250	-0.035311043
120	0x3c482485	0.012215738
121	0x3d8d96c6	0.069135234
122	0xbbd94696	-0.006630729
123	0x3ce5db87	0.02805878
124	0xbcc8783b	-0.024471393
125	0x3ce15446	0.027506005
126	0x3d9a15cb	0.07523688
127	0xbc640cfa	-0.0139191095
128	0x3d191a67	0.037378695
129	0xbd618780	-0.055060863
130	0xbd130998	-0.03589782
131	0x3ca58e25	0.020209381
132	0xbda92328	-0.08258659
133	0xbdbae5fc	-0.09125897
134	0x3d4c052b	0.049809616
135	0xbcb2b0bc	-0.02181279
136	0xbdce7119	-0.100801654
137	0xbdd7247e	-0.10505007
138	0xbe02d816	-0.12777743
139	0xbdea7d99	-0.11449737
140	0xbcbaf94c	-0.022823952
141	0xbc9decf5	-0.019278029
142	0xbc9d3688	-0.019191042
143	0x3d5bacc6	0.053631566
144	0x3d572887	0.052528884
145	0xbd4d5d84	-0.05013801
146	0xbd0b0e61	-0.03394926
147	0xbdf05561	-0.11735035
148	0x3c586826	0.013208425
149	0xbd5e0568	-0.054204375
150	0xbca8460b	-0.020541212
151	0xbd26a851	-0.040687863
152	0xbe3f809b	-0.18701403
153	0x3d503488	0.050831348
154	0xbd14477a	-0.036200978
155	0x3c2cdbc0	0.010550439
156	0xbd561db8	-0.052274436
157	0xbe0b9f5f	-0.13635014
158	0xbdd4ebc4	-0.10396531
159	0x3d304ecf	0.043043908
160	0xbddb7aad	-0.10716758
161	0xba950a3d	-0.0011370849
162	0xbdf09a1d	-0.11748145
163	0x3c8b1c3c	0.016981237
164	0xbc5477b6	-0.012967994
165	0xbd2fd9e1	-0.042932395
166	0x3d215675	0.039389092
167	0xbcadddeb	-0.021223983
168	0xbc20a315	-0.009804507
169	0x3c1b6842	0.009485306
170	0xbd6a9808	-0.057273895
171	0xbc90c844	-0.01767362
172	0xbd1c0e46	-0.03809955
173	0xbdf85e6d	-0.12127385
174	0xbd22e40b	-0.03976826
175	0xbb591cf7	-0.0033128837
176	0xbd9a1930	-0.075243354
177	0xbc60ef61	-0.013728947
178	0xbdfef87a	-0.12449737
179	0x3d91dd1e	0.07122253
180	0xbde838f4	-0.11338988
181	0xbc903ec0	-0.017608047
182	0xbd084648	-0.03327015
183	0xbe01b453	-0.12666444
184	0xbdb29c03	-0.08721163
185	0xbcc8ab03	-0.024495607
186	0x3a018156	0.0004940232
187	0xbd835b05	-0.06413845
188	0x3cce32d9	0.02517073
189	0xbdcd4d25	-0.1002448
190	0x3d6bb917	0.057549562
191	0xbcbdfab3	-0.023190832
192	0xbd6323ae	-0.05545395
193	0xbe09866b	-0.13430183
194	0xbcdfce37	-0.02732001
195	0x3bcaf294	0.0061934683
196	0x3d847d61	0.06469227
197	0xbdaadd78	-0.08343023
198	0xbdb7ff78	-0.08984274
199	0xbe0695ea	-0.13143125
200	0xbb9c24aa	-0.004765113
201	0x3bbb9fae	0.0057258224
202	0xbd4bf937	-0.049798217
203	0xbb50ed12	-0.0031879586
204	0xbdd60069	-0.10449297
205	0xbd8e2ace	-0.06941758
206	0x3d7e9180	0.06215048
207	0xbd831e71	-0.064022906
208	0xbd9df963	-0.07713582
209	0x3d5be517	0.053685274
210	0xbdbb8c11	-0.09157575
211	0xbd8ed28f	-0.069737546
212	0xbdd92a72	-0.10603799
213	0x3d0dd38d	0.03462558
214	0x3cce268b	0.025164863
215	0x3c3dcb71	0.011584149
216	0xbd6f44bd	-0.058415163
217	0xbe1b1f71	-0.15148713
218	0x3d585279	0.052813027
219	0xbcf59905	-0.029980192
220	0x3cbefb69	0.023313241
221	0xbc341386	-0.010990983
222	0xbdee02b2	-0.11621608
223	0xbdd1d8ad	-0.10246406
224	0xbdaaa056	-0.08331363
225	0xbd517c39	-0.05114386
226	0xbdf6dfef	-0.12054431
227	0x3c818a83	0.015813118
228	0xbca7de61	-0.02049178
229	0x3c9f1e60	0.019423664
230	0x3d25b34c	0.040454194
231	0xbd48a439	-0.04898474
232	0xbe096524	-0.13417488
233	0x3c489cb9	0.012244397
234	0xbd29f8d9	-0.041497085
235	0xbd67e15e	-0.05661141
236	0xbddbd049	-0.107330866
237	0x3cc1f5cc	0.023676775
238	0xbd10e433	-0.035373878
239	0xbdea486b	-0.11439594
240	0xbd9a8116	-0.075441524
241	0x3d7246b4	0.05914946
242	0x3c9f4541	0.019442203
243	0xbd8fddc6	-0.07024722
244	0xbe0a9561	-0.13533546
245	0xbbdffb01	-0.006835342
246	0xbdb065e0	-0.08613181
247	0xbd028a14	-0.031869963
248	0xbcfd77e8	-0.030940965
249	0xbde39038	-0.11111492
250	0xbda306fb	-0.07960316
251	0x3c68ab60	0.014201015
252	0xbdd0cc74	-0.10195246
253	0xbda2bf0d	-0.07946596
254	0xbd010647	-0.031500127
255	0x3d7029d2	0.058633633

gru.bias_hh_l0 f4 [384]
0	0x3d495942	0.04915739
1	0xbbefe7dd	-0.0073213414
2	0xbd845e2b	-0.064632736
3	0x3bdeb94a	0.0067969905
4	0x3d8e1579	0.06937689
5	0x3c087e7f	0.00833094
6	0x3ce5a9da	0.028035093
7	0xbd112138	-0.03543207
8	0xbd658135	-0.056031425
9	0x3bcd4339	0.006264117
10	0xbd5f6951	-0.054543797
11	0xbd13a331	-0.036044303
12	0x3d424cba	0.047436453
13	0xbdb0cf07	-0.08633237
14	0x3d92ce5e	0.07168268
15	0x3db0999d	0.086230494
16	0x3c34d466	0.011036968
17	0x3bdf9ab3	0.0068238615
18	0xbd32df8d	-0.043670226
19	0xbd65c6cc	-0.05609779
20	0x3c7d3e50	0.015456751
21	0x3d681d8e	0.05666881
22	0xbca568b4	-0.020191528
23	0x3d2a330d	0.041552592
24	0xbd01be96	-0.031675898
25	0xbd8a0d55	-0.06740824
26	0xbcd4e0ec	-0.025986157
27	0x3d05629b	0.03256474
28	0x3db9594b	0.090502344
29	0xbd20e804	-0.039283767
30	0x3b22db81	0.0024850073
31	0x3b8a649e	0.0042234203
32	0xbd1229db	-0.035684448
33	0xbc9224d6	-0.01783983
34	0xbd54496e	-0.05182784
35	0xbd5b4546	-0.05353286
36	0xbcdc22d7	-0.026872082
37	0x3d34f844	0.044182077
38	0xbcac7e5f	-0.021056352
39	0x3d56de96	0.05245837
40	0x3d2c8dc9	0.042127404
41	0x3cfe26fd	0.03102445
42	0x3dd4a346	0.103827044
43	0xbcaf2a2d	-0.021382416
44	0x3da1c903	0.07899668
45	0x3c40e4ce	0.011773301
46	0xbd53c790	-0.05170399
47	0xbd57e42c	-0.052707836
48	0x3d17b6cb	0.03703956
49	0x3ce9bbb7	0.028531892
50	0x3d8c7033	0.06857338
51	0xbd6d5023	-0.057937752
52	0xbc8c0c57	-0.017095728
53	0x3d0d0500	0.034428596
54	0x3d52fcf1	0.051510755
55	0x3dc0dfef	0.09417712
56	0xbdd9c145	-0.10632566
57	0xbca02d55	-0.019552866
58	0xbc0688e7	-0.008211351
59	0xbd1b3927	-0.0378963
60	0xbd2a16c8	-0.041525632
61	0xbd9a9134	-0.075472265
62	0x3d047eba	0.03234742
63	0x3dabe6ce	0.08393632
64	0xbd587ab3	-0.05285139
65	0x3d8750fb	0.06607243
66	0xbcfa81f8	-0.030579552
67	0xbd7ec4fe	-0.062199585
68	0x3da775c4	0.08176759
69	0xbd9b98cb	-0.07597502
70	0x3c85b836	0.01632319
71	0x3d93944a	0.07206018
72	0x3dc637ec	0.09678635
73	0xbd898241	-0.06714297
74	0x3d783e1f	0.06060612
75	0xbbcf8507	-0.0063329968
76	0x3dcb5a09	0.09929282
77	0x3dbff09c	0.093720645
78	0x3d248291	0.04016358
79	0x3d4f6661	0.050634746
80	0xbd562bd5	-0.052287895
81	0xbd878f3c	-0.06619117
82	0x3db2da7d	0.087330796
83	0x3d8c9c0d	0.06865702
84	0x3cbdde10	0.023177177
85	0x3d864245	0.06555609
86	0x3d90a9e0	0.07063651
87	0x3cf9fd41	0.030516269
88	0x3dc1605e	0.09442209
89	0xbd15d46b	-0.03657953
90	0xbc93edd9	-0.01805775
91	0xbce18122	-0.027527396
92	0x3da3c1d2	0.07995953
93	0xbd59fef5	-0.05322166
94	0xbc8149a3	-0.015782183
95	0x3d300a6c	0.04297869
96	0x3d949e17	0.07256716
97	0x3d8acc81	0.06777287
98	0x3d2174bf	0.03941798
99	0xbc4a6d90	-0.012355223
100	0x3dc03f95	0.09387127
101	0x3ca1c2eb	0.019746264
102	0x3d00052f	0.031254943
103	0xbcf0abe9	-0.029378848
104	0xbc46318e	-0.012096776
105	0xbd4b6c2d	-0.04966371
106	0xb99e9026	-0.00030243507
107	0x3c0d9e74	0.008643735
108	0x3d978183	0.07397749
109	0x3daa4789	0.083144255
110	0x3d2e0079	0.04248092
111	0xbd980ce5	-0.074243344
112	0xbd39ea40	-0.045389414
113	0xbb176187	-0.0023098902
114	0x3d01ee60	0.031721473
115	0x3cecb659	0.028895544
116	0x3c78da2a	0.015188733
117	0x3d982106	0.07428174
118	0x3d20521d	0.03914081
119	0xbc821290	-0.015877992
120	0x3d9aaf40	0.075529575
121	0xbb71d4ff	-0.0036900637
122	0xbcd5d676	-0.02610324
123	0x3ca38498	0.019960687
124	0xbcd4ff81	-0.02600074
125	0x3d9c04ef	0.076181285
126	0x3db45e70	0.08807075
127	0xbd75e45f	-0.060032245
128	0xbd299066	-0.041397475
129	0xbdba947c	-0.091103524
130	0xbdaff4a1	-0.08591581
131	0x3d05f4fd	0.032704342
132	0x3c93038f	0.017946033
133	0xbdcf7a4f	-0.101307504
134	0xbc0745dc	-0.008256402
135	0xbe3d9ef9	-0.18517675
136	0xbcc6c913	-0.024265802
137	0xbe218359	-0.15772761
138	0xbe1a46be	-0.15066049
139	0xbd82b1d2	-0.06381573
140	0x3ab3ff2c	0.0013732663
141	0xbd9ea45c	-0.07746193
142	0xbd981436	-0.0742573
143	0x3d6884cd	0.056767274
144	0x3cb7ed1a	0.022451926
145	0xbe00c625	-0.12575586
146	0xbddec0d6	-0.10876624
147	0xbd93796b	-0.07200893
148	0xbd3ae437	-0.0456278
149	0x3d600813	0.0546952
150	0xbe194d56	-0.14970908
151	0xbd2006f9	-0.03906915
152	0xbe3b37b9	-0.18282975
153	0x3d7f2e95	0.062300283
154	0xbdc507f2	-0.09620656
155	0xbc9f6401	-0.019456865
156	0xbc9d2add	-0.019185478
157	0xbdb55b9f	-0.08855366
158	0xbd2f06c4	-0.04273106
159	0x3ca5df03	0.020247942
160	0xbbcdf552	-0.006285348
161	0xbd1dcf7c	-0.03852795
162	0xbcf385ed	-0.029726947
163	0xbdc731b2	-0.097262755
164	0x3c37a8e5	0.011209701
165	0xbd3ec5b9	-0.04657528
166	0xbd39ccee	-0.04536145
167	0xbd45d8a5	-0.04830231
168	0xbdcc9499	-0.0998928
169	0x3b889981	0.0041686897
170	0xbda25abb	-0.07927462
171	0xbd812331	-0.0630554
172	0xbcd4bb0b	-0.025968095
173	0x3d0f5815	0.03499611
174	0x3ceb8bb1	0.028753133
175	0xbca7b210	-0.020470649
176	0xbe0846d8	-0.13308275
177	0x3d3fdb3b	0.046839934
178	0xbe295410	-0.16535974
179	0x3cfe3170	0.031029433
180	0xbda08f55	-0.078398384
181	0x3ccbdfdf	0.024887023
182	0x3d70dd95	0.058805067
183	0xbdc3c9b2	-0.09559955
184	0xbd20df9e	-0.039275758
185	0xbda809f0	-0.082050204
186	0xba46f08e	-0.0007588946
187	0xbd392cda	-0.04520879
188	0xbdfab077	-0.12240689
189	0x3cc0701d	0.02349096
190	0x3d0b3cae	0.033993416
191	0x3c9e3473	0.01931212
192	0xbdbd8f41	-0.09255839
193	0xbdafd846	-0.08586173
194	0xbcc76c77	-0.024343712
195	0x3ce95cb3	0.028486585
196	0xbd83fc4e	-0.06444608
197	0xbcf70ebd	-0.030158395
198	0xbd63f477	-0.05565306
199	0xbe3958c6	-0.1810027
200	0xbdbeab15	-0.09309975
201	0x3d007523	0.03136171
202	0xbd66e4f0	-0.056370676
203	0xbc7d854a	-0.015473673
204	0x3c66b340	0.0140808225
205	0xbd7ca170	-0.061677396
206	0x3d9f4742	0.07777263
207	0xbdb73f89	-0.08947665
208	0x3cba5d6d	0.022749627
209	0xbbd888a1	-0.0066080843
210	0xbdd9311d	-0.10605071
211	0xbe160165	-0.1464897
212	0x3d07aced	0.0331239
213	0xbde1df3f	-0.11028909
214	0xbcac2f69	-0.0210187
215	0x3d405024	0.046951428
216	0xbe1a3dd8	-0.15062654
217	0xbe1699e3	-0.1470714
218	0xbd89a696	-0.06721227
219	0x3c7ef1ac	0.015560549
220	0xbda11829	-0.07865936
221	0xbd749208	-0.05970958
222	0xbc8d15bc	-0.017222278
223	0xbe0b557d	-0.1360683
224	0x3c8219d3	0.015881455
225	0x3baa92e8	0.005205501
226	0xbb620581	-0.0034488144
227	0xbdb524a8	-0.08844882
228	0xbc5df7a2	-0.01354781
229	0x3c69f19c	0.014278796
230	0x3d64f954	0.05590184
231	0xbd68aebb	-0.05680726
232	0x3d099748	0.03359154
233	0xbd7a8f5e	-0.06117188
234	0xbe2457ad	-0.1604907
235	0x3cf585e6	0.029971074
236	0xbbc394ea	-0.0059686797
237	0xbce0fce8	-0.027464345
238	0x3b11085b	0.0022130224
239	0xbdaab084	-0.08334449
240	0xbdf14fde	-0.117828116
241	0xbdaede85	-0.08538536
242	0xbd573a5e	-0.052545898
243	0x3bbc716a	0.0057508247
244	0xbdcad558	-0.09903973
245	0xbdc6a0d1	-0.09698642
246	0xbd4ec3f9	-0.050479863
247	0xbd4bb852	-0.04973633
248	0xbe009b17	-0.12559162
249	0xbdaa89ba	-0.083270505
250	0xbcc39f2e	-0.023879614
251	0x3c98ca31	0.0186511
252	0xbe08c037	-0.13354574
253	0xbd92e6b9	-0.07172913
254	0x38aabb5a	8.141129e-05
255	0x3c24363e	0.010022698

gru.weight_ih_l1 f4 [384, 128]
0	0xbbb00d0d	-0.0053726495
1	0xbca803bb	-0.020509591
2	0x3d4ff94f	0.05077487
3	0x3c469cd6	0.012122354
4	0xbd97ccd9	-0.074121185
5	0xbd11e24b	-0.0356162
6	0xbb41a71e	-0.0029549072
7	0x3d5fdcaa	0.0546538
8	0x3aeefc3d	0.0018233132
9	0x3cc735a1	0.024317564
10	0x3d5c5ba1	0.05379832
11	0xbd4ca141	-0.04995847
12	0x3c8c09fc	0.017094605
13	0xbdb158ca	-0.08659513
14	0x3d031451	0.032001797
15	0xbd83fa38	-0.0644421
16	0xbd5eb392	-0.05437047
17	0x3cd0b7b1	0.025478216
18	0xbd531738	-0.051535815
19	0x3cfe2880	0.031025171
20	0x3cb92bc1	0.022603871
21	0xbb20eca5	-0.0024555114
22	0xbd9a9248	-0.07547432
23	0xbd5c02f0	-0.05371374
24	0x3d9fd7cf	0.07804834
25	0xbd315847	-0.04329708
26	0x3d8fd451	0.07022918
27	0xbd8718b1	-0.065965064
28	0x3d8469d6	0.06465499
29	0x3c2883f0	0.010285363
30	0xbcbfa627	-0.023394657
31	0xbcf7df7d	-0.030257935
32	0x3d80c0eb	0.06286796
33	0xbcd7adea	-0.026328046
34	0xbd97d41b	-0.07413503
35	0xbd942ad0	-0.07234728
36	0xbca7ab55	-0.02046744
37	0x3c48dd9e	0.012259869
38	0x3d151b2f	0.036402877
39	0xbdc468f9	-0.095903344
40	0x3d1872fb	0.03721903
41	0x3db082a0	0.08618665
42	0x3d51fbdd	0.051265586
43	0x3d5976ce	0.053091817
44	0xbc11b3aa	-0.008892933
45	0x3ce7f7a9	0.028316336
46	0xbc18a0ea	-0.009315709
47	0x3d8b4945	0.068010844
48	0xbd88b151	-0.066744454
49	0x3d50e5ee	0.051000528
50	0xbd781480	-0.060566425
51	0xbd2343f4	-0.039859727
52	0x3d5c853d	0.053838003
53	0x3d9f3291	0.07773317
54	0x3c613635	0.013745834
55	0x3cbf56fb	0.023356905
56	0x3d2b3acf	0.04180413
57	0xbd99774a	-0.07493456
58	0xbd2e695d	-0.04258095
59	0xbc4ab8d0	-0.012373164
60	0xbd827b72	-0.063712016
61	0xbb8e5cc0	-0.0043445528
62	0x3d8ecd22	0.0697272
63	0xbadc60fe	-0.0016813574
64	0xbb12c910	-0.0022397675
65	0xbca60657	-0.020266695
66	0xbd2d8559	-0.0423635
67	0xbcd1f57a	-0.025629748
68	0x3d7b0bab	0.061290424
69	0x3c8262e6	0.0159163
70	0x3b80e171	0.0039331247
71	0xba1272d4	-0.0005586569
72	0x3c816dbd	0.015799398
73	0x3d22f577	0.039784875
74	0x3c3f6b3e	0.011683283
75	0xbc0e0632	-0.008668469
76	0xbd23731e	-0.039904706
77	0xbd9fd707	-0.07804685
78	0xbc04841f	-0.008088141
79	0xbd9fb116	-0.07797448
80	0x3cba2667	0.02272339
81	0xbdc285e8	-0.09498197
82	0xbd0200e9	-0.03173915
83	0xbce09631	-0.027415367
84	0x3d82a949	0.06379945
85	0x3c8da5fa	0.017291058
86	0x3d9ecf65	0.07754401
87	0xbd92271d	-0.071363665
88	0xbd072ba8	-0.03300062
89	0xbd2939f1	-0.041315023
90	0xbd87e3dd	-0.06635258
91	0x3da0727c	0.07834336
92	0x3d98363d	0.0743222
93	0x3db7ab3a	0.08968206
94	0x3d81ad5a	0.06331892
95	0x3ca89a35	0.020581344
96	0xbd9e67c9	-0.07734639
97	0x3d463d37	0.048398223
98	0x3d8d3266	0.06894378
99	0x3d6df252	0.058092423
100	0x3d8a6640	0.06757784
101	0x3cf1ca2e	0.029515352
102	0xbd84a84b	-0.06477412
103	0x3d4a752e	0.049428158
104	0x3da4759a	0.08030243
105	0xbc4bb1b4	-0.012432504
106	0xbbcf0457	-0.006317656
107	0x3b40246c	0.0029318584
108	0x3dab6af8	0.08370012
109	0x3cbe0f28	0.023200586
110	0xbd159ebf	-0.036528345
111	0x3d392b9d	0.04520761
112	0x3d843ac1	0.06456519
113	0xbd292ca2	-0.04130233
114	0x3da53ba3	0.080680154
115	0xbcfa746e	-0.030573096
116	0xbb44eec4	-0.0030049542
117	0x3baf5280	0.005350411
118	0xbd77ef87	-0.060531165
119	0xbc5ca635	-0.013467361
120	0xbd5364e5	-0.051609892
121	0x3d85476e	0.06507765
122	0x3d80c875	0.06288234
123	0xbc5f722a	-0.013638059
124	0xbd5d1706	-0.053977035
125	0xbda5cb0d	-0.080953695
126	0x3d6fca84	0.058542743
127	0x3cf8c362	0.030366603
128	0xbc6f8519	-0.014619135
129	0xbdaa93d1	-0.08328975
130	0x3d1cc249	0.038271222
131	0xbda7f64f	-0.082012765
132	0x3d11ea0c	0.035623595
133	0x3accaf3d	0.001561619
134	0xbd549c43	-0.051906835
135	0xbdc44442	-0.09583332
136	0x3b6094f4	0.003426847
137	0x3d9ece07	0.0775414
138	0x3d4361c9	0.047700677
139	0x3ca7cd6b	0.020483693
140	0xbdacb2ec	-0.08432564
141	0xbdddf7cb	-0.108382784
142	0x3dc36fa6	0.095427796
143	0x3cea105d	0.028572256
144	0x3d8589fe	0.065204605
145	0x3cf95d2d	0.030439937
146	0x3d38fc1c	0.045162305
147	0xbd633cd9	-0.05547795
148	0x3d8b760a	0.068096235
149	0xbd8dc48f	-0.06922256
150	0xbda9f92f	-0.08299481
151	0x3dd8a857	0.10578983
152	0xbd630eca	-0.055434026
153	0x3ccf4b00	0.025304317
154	0x3d859353	0.065222405
155	0xbdde1dd4	-0.10845533
156	0xbd9f6bfc	-0.07784268
157	0x3db40f84	0.08792022
158	0x3bf2aae0	0.007405624
159	0xbcaedb51	-0.021344813
160	0xbd9ff8bd	-0.07811115
161	0x3db5b891	0.08873094
162	0x3ce4a73d	0.027911777
163	0x3d063198	0.03276214
164	0xbd8fa26f	-0.070134036
165	0x3d34ce98	0.044142336
166	0x3d44b545	0.048024435
167	0x3db788df	0.08961653
168	0x3ce8a808	0.028400436
169	0xbc8b11ab	-0.016976198
170	0xbd725d56	-0.059171043
171	0x3c172b32	0.009226607
172	0xbdaa131c	-0.08304426
173	0x3d954be1	0.072898634
174	0xbd1ebc84	-0.038754
175	0xbd8cd71b	-0.068769656
176	0xbce4a273	-0.027909493
177	0x3de64251	0.112431176
178	0xbd3ec1a2	-0.04657138
179	0x3c430cbd	0.0119048925
180	0x3d325a90	0.0435434
181	0xbdb12597	-0.08649748
182	0x3d7fcf0e	0.062453322
183	0xbceffba4	-0.029294796
184	0x3d3e9aac	0.046534225
185	0xbd05ec56	-0.03269609
186	0x3c25594a	0.010092089
187	0xbdac2671	-0.084057696
188	0x3cf4e90e	0.029896285
189	0x3dbc1fa7	0.09185725
190	0xbdc691ef	-0.096958034
191	0x3d9ae516	0.07563226
192	0xbc9b12c1	-0.018929841
193	0xbd043043	-0.03227259
194	0xbddc2fa2	-0.10751273
195	0x3d481c66	0.048855208
196	0x3c8a1da4	0.016859837
197	0x3d218c68	0.039440542
198	0xbd14713f	-0.036240812
199	0xbb048730	-0.002022218
200	0x3dfb2219	0.12262363
201	0x3d421e16	0.047391973
202	0xbd1be375	-0.038058717
203	0x3db6bda0	0.08922887
204	0x3da45edf	0.08025908
205	0xbc4d7af2	-0.0125415195
206	0xbd9248e4	-0.07142809
207	0xbd001f20	-0.031279683
208	0xbd3e7fab	-0.046508472
209	0xbd7ca48a	-0.061680354
210	0xbdccc16b	-0.09997829
211	0xbdc5214a	-0.0962549
212	0x3d15bf67	0.03655949
213	0x3b647c4a	0.003486412
214	0xbd696fa7	-0.056991246
215	0xbd0e9198	-0.034806818
216	0x3d850757	0.064955406
217	0x3d4eb838	0.050468653
218	0x3d104eae	0.035231285
219	0x3db9ebae	0.090781555
220	0xbd40fac6	-0.047114156
221	0x3de1d0b9	0.11026139
222	0x3dd520bc	0.10406634
223	0x3d1350aa	0.0359656
224	0x3d0eb521	0.034840707
225	0x3d10c5af	0.035344776
226	0x3d6a5c45	0.0572169
227	0x3cc830a6	0.02443726
228	0x3d1d6804	0.038429275
229	0x3d156b31	0.03647918
230	0x3ce60072	0.028076384
231	0xbdc517bf	-0.0962367
232	0xbdbb2e37	-0.09139674
233	0xbd5a870d	-0.05335145
234	0x3d7cc0e3	0.06170739
235	0x3d180c20	0.03712094
236	0x3d520348	0.05127266
237	0xbc9e199b	-0.019299319
238	0xbd6e7c16	-0.058223806
239	0x3d3c4f7c	0.04597424
240	0x3d8bdd52	0.06829323
241	0x3daa9759	0.083296485
242	0xbd97799c	-0.07396242
243	0xbd291f49	-0.0412896
244	0x3ca06c91	0.019583018
245	0x3d3a0607	0.045415904
246	0xbca45199	-0.02005844
247	0xbc06bfd3	-0.008224445
248	0xbd9a17b5	-0.07524053
249	0xbb92ccc6	-0.0044799773
250	0x3db5381a	0.08848591
251	0x3c91f547	0.017817153
252	0xbdb9b059	-0.09066839
253	0x3d76b255	0.060228664
254	0xbdb7d40d	-0.08975992
255	0x3ca49bc1	0.0200938

gru.weight_hh_l1 f4 [384, 128]
0	0xbd4a23f0	-0.04935068
1	0x3cb767bd	0.022388333
2	0x3c7b22da	0.0153281335
3	0x3b8e9feb	0.00435256
4	0x3d3d52bd	0.046221483
5	0x3da08cb1	0.07839335
6	0x3d742573	0.059606027
7	0x3cca0558	0.024660751
8	0xbd7e16ac	-0.06203334
9	0x3d64f95c	0.05590187
10	0xbd146719	-0.036231134
11	0xbda05195	-0.078280605
12	0x3c03dc64	0.008048151
13	0xbd2870bd	-0.04112314
14	0x3ca561b8	0.020188197
15	0xbc4fbf8a	-0.012679944
16	0x3d1cb844	0.038261667
17	0xbcd205de	-0.025637563
18	0x3d7aff59	0.061278675
19	0x3cc190af	0.02362856
20	0x3d8c03ba	0.06836648
21	0xbd490052	-0.04907257
22	0xb9756092	-0.00023400996
23	0xbd2fb933	-0.04290123
24	0x3d718b8a	0.058970965
25	0x3d555805	0.052085895
26	0xbd81bfba	-0.06335397
27	0xbc75467d	-0.014970419
28	0x3b4350b3	0.002980274
29	0x39f0ec75	0.0004595254
30	0x3cebac36	0.02876864
31	0xbd2ec779	-0.0426707
32	0x3d8c0c08	0.06838232
33	0x3d873b18	0.06603068
34	0xbd5b44b1	-0.053532306
35	0x3d2765e3	0.04086865
36	0x3d6af157	0.057359066
37	0xbd446574	-0.047948316
38	0xbdbf9157	-0.09353893
39	0x3d32df02	0.043669708
40	0x3d8a0a6d	0.0674027
41	0x3d8f7d64	0.07006338
42	0x3d8c240a	0.068428114
43	0x3c68b7fd	0.0142040225
44	0xbcd6712a	-0.026177008
45	0xbc21e6cb	-0.0098816855
46	0xbd8b8b63	-0.06813695
47	0x3cdb4499	0.026766108
48	0x3d0bd645	0.03413989
49	0x3c130897	0.008974216
50	0xbd347ab9	-0.04406235
51	0x3d18bfa0	0.037292123
52	0xbd21f2d5	-0.039538223
53	0x3d35ce56	0.04438623
54	0xbd5fec84	-0.05466892
55	0xbc20d372	-0.0098160375
56	0xbcf24342	-0.029573087
57	0x3cc1b842	0.023647431
58	0x3a640cd8	0.00086994236
59	0x3c1dbe57	0.0096279
60	0xbda4e65c	-0.0805175
61	0x3dadd8b5	0.08488599
62	0x3bc9a40b	0.0061535886
63	0x3b23309d	0.0024900802
64	0xbd42c244	-0.047548547
65	0x3cce3635	0.025172332
66	0xbd95bd3e	-0.07311486
67	0xbd98e951	-0.074663766
68	0xbdc9a97e	-0.09846781
69	0xbd547795	-0.051871855
70	0xbda55cb2	-0.08074321
71	0x3d47521d	0.048662294
72	0xbd561d53	-0.05227406
73	0x3d9702b0	0.073735595
74	0xbd17d6f0	-0.037070215
75	0x3d489249	0.048967633
76	0x3da5b30b	0.0809079
77	0x3c593e92	0.013259547
78	0x3daa0bf8	0.08303064
79	0xbd79603a	-0.060882784
80	0x3d2ad015	0.04170235
81	0x3c50be0a	0.012740621
82	0x3d0e1ec0	0.034697294
83	0x38d7de83	0.00010293445
84	0x3d7aa752	0.061194725
85	0xbd0c8dbf	-0.034314867
86	0xbd088232	-0.03332729
87	0x3ca79583	0.020457035
88	0xbd01de78	-0.031706303
89	0xbce5e5d7	-0.028063698
90	0xbd9b2c02	-0.07576753
91	0x3d546fa1	0.05186427
92	0xbccdc2a3	-0.025117224
93	0x3d9c8dc0	0.07644224
94	0xbc7339c1	-0.014845313
95	0xbdd04654	-0.10169664
96	0x3d87043b	0.06592604
97	0xbd938cf5	-0.0720462
98	0xbc9fd74f	-0.019511847
99	0x3d21b09c	0.03947507
100	0xbd857b93	-0.065177105
101	0xbda25e41	-0.07928134
102	0xbd1689f7	-0.036752667
103	0xbc805883	-0.015667206
104	0xbdb97408	-0.09055334
105	0x3d0e6844	0.034767404
106	0xbd947d3c	-0.07250449
107	0xbbc60b52	-0.00604383
108	0xbc169f56	-0.009193262
109	0xbd153143	-0.036423933
110	0xbd9a4be6	-0.07534008
111	0xbcdc658a	-0.026903886
112	0x37c26941	2.3175615e-05
113	0x3d19babe	0.037531607
114	0x3d50f3a3	0.0510136
115	0x3d41fcf5	0.04736038
116	0x3da84792	0.08216776
117	0x3daa1723	0.08305194
118	0x3d5067a7	0.0508801
119	0x3c57504c	0.013141703
120	0x3c0a31c5	0.008434718
121	0x3dd54996	0.10414426
122	0xbba1bbdc	-0.0049357247
123	0x3d246308	0.040133506
124	0xbcfe8ec6	-0.031073939
125	0x3d92f0dd	0.07174847
126	0x3d21d932	0.039513774
127	0x3d0c87e5	0.034309287
128	0xbc822155	-0.015885035
129	0x3ca1a487	0.019731773
130	0x3ce4c37d	0.027925247
131	0x3c86b32b	0.016442856
132	0xbc25f502	-0.010129215
133	0x3de34846	0.110977694
134	0x3d475e63	0.048674
135	0x3da52f23	0.08065631
136	0xbcd2dd78	-0.02574037
137	0xbbff2ea1	-0.007787541
138	0x3ccfc431	0.025362106
139	0x3dafec26	0.085899636
140	0xbda7bf10	-0.08190739
141	0x3d1f794c	0.038934037
142	0xbd680f83	-0.056655418
143	0x3db251dc	0.0870702
144	0xbd3d9248	-0.046282083
145	0x3d15af11	0.03654391
146	0x3d9b217c	0.07574746
147	0x3c1618c8	0.009161182
148	0xbca8c2d5	-0.020600716
149	0xbd8049e9	-0.06264097
150	0x3ceb2573	0.02870438
151	0xbd8dc93d	-0.06923149
152	0xbd66b14e	-0.056321435
153	0x3ddf955a	0.109171584
154	0xbc467f7a	-0.012115354
155	0x3cc3580f	0.0238457
156	0xbcf991b7	-0.03046499
157	0x3e02b957	0.12766014
158	0xbccf151a	-0.025278617
159	0xbd98433f	-0.07434701
160	0xbd35219c	-0.044221506
161	0xbb5f7b42	-0.0034100567
162	0xbd898dc8	-0.06716496
163	0xbdb49f08	-0.08819395
164	0x3d977e52	0.073971406
165	0x3c3e202d	0.011604351
166	0x3cbc5ac4	0.0229925
167	0x3d57ee4c	0.052717492
168	0xbc84a92b	-0.016193947
169	0x3c951af2	0.018201325
170	0x3d9ceb1e	0.076620325
171	0xbdc0faa1	-0.09422804
172	0xbcf13099	-0.029442118
173	0xbd9dd268	-0.077061474
174	0xbd08ff0d	-0.03344636
175	0xbd597f9c	-0.053100213
176	0x3d46791b	0.04845534
177	0xbc02e133	-0.007988262
178	0x3d2257b6	0.03963443
179	0xbd3b587d	-0.045738686
180	0xbe03709e	-0.12835929
181	0x3cc8fe8b	0.024535438
182	0x3cf5eb34	0.03001938
183	0xbd49d85f	-0.049278613
184	0xbcf285f3	-0.029604888
185	0xbdabe2eb	-0.083928905
186	0xbdd0f4e3	-0.102029584
187	0x3df0d306	0.117589995
188	0x3d28a839	0.041176055
189	0xbcc57975	-0.024105767
190	0x3d52c0b3	0.051453304
191	0xbd371bf9	-0.04470441
192	0x3d541d2e	0.05178564
193	0x3b3c9ea1	0.0028781074
194	0x3c7c16a3	0.015386256
195	0xbdadebee	-0.08492266
196	0x3d01ec8a	0.03171972
197	0xbc985a53	-0.018597757
198	0x3ba63847	0.0050726268
199	0xbd3ec115	-0.046570856
200	0xba7540d9	-0.00093556714
201	0xbd854af9	-0.065084405
202	0x3c613fd6	0.01374813
203	0xbd9ca7b0	-0.07649171
204	0x3cfe8e95	0.031073848
205	0xbda1b173	-0.07895174
206	0x3ca36a91	0.019948276
207	0x3d189ea3	0.037260663
208	0x3b477a4f	0.0030437892
209	0xbbf4633a	-0.007458118
210	0xbc99db77	-0.018781407
211	0x3dbe17c3	0.09281876
212	0xbccfd4c6	-0.025370013
213	0xbd230c90	-0.039806902
214	0x3d0183b0	0.031619728
215	0x3c9d5b70	0.01920864
216	0xbdd57d52	-0.104242936
217	0xbd4e3609	-0.0503445
218	0x3c51062f	0.012757822
219	0xbd568c1e	-0.05237972
220	0x3c7a6281	0.015282274
221	0x3daee3ac	0.08539519
222	0xbb11b0ed	-0.00222307
223	0x3d1fa660	0.038977027
224	0xbd82412c	-0.06360087
225	0x3b8d043a	0.0043034824
226	0xbd85175e	-0.064985976
227	0x3bf61668	0.0075099953
228	0xbc0a83ae	-0.008454246
229	0x3cd88e69	0.026435094
230	0xbcec7a52	-0.02886692
231	0xbdc230de	-0.09481977
232	0xbc917c43	-0.017759448
233	0xbdd3e771	-0.10346878
234	0x3bd42fb8	0.006475415
235	0x3d2ec459	0.04266772
236	0xbd24fecd	-0.04028206
237	0x3d05e944	0.032693163
238	0xbd6cbe01	-0.05779839
239	0x3ca96061	0.02067584
240	0xbdd19d56	-0.102350876
241	0x3d6e0662	0.058111556
242	0xbb72bc7b	-0.0037038613
243	0x3d4a26fc	0.049353585
244	0x3d85ea96	0.06538884
245	0xbc0ef1cd	-0.008724642
246	0xbd149954	-0.036279038
247	0xbc84e877	-0.01622413
248	0x3de110a2	0.109895006
249	0xbd09980d	-0.033592273
250	0x3d07fc92	0.033199854
251	0xbb8a4104	-0.0042191762
252	0x3db53209	0.08847434
253	0x3ce8afd5	0.028404156
254	0x3ce101cd	0.027466679
255	0x3d1ca717	0.038245287

gru.bias_ih_l1 f4 [384]
0	0xbcb18e28	-0.02167423
1	0xbb8b5101	-0.0042516
2	0x3b9f4d62	0.0048615197
3	0xbd874c62	-0.06606366
4	0x3c0d5b72	0.008627759
5	0x3cea2d53	0.028586065
6	0x3c28eca7	0.010310329
7	0x3d803d8a	0.06261738
8	0xbd8df78c	-0.069319814
9	0xba85a7e2	-0.0010197128
10	0xbd17d400	-0.037067413
11	0x3d9696c9	0.07352979
12	0x3d86691a	0.06563015
13	0xbd7da34b	-0.061923306
14	0x3c9f44d1	0.019441994
15	0x3d18dd15	0.037320215
16	0x3d9e40a4	0.07727173
17	0xbd8672c7	-0.06564861
18	0x3d62ea12	0.055399008
19	0xbcdb1703	-0.026744371
20	0xbd8839ff	-0.06651687
21	0xbd5ffc7b	-0.054684144
22	0x3ca77e96	0.020446103
23	0xbc0d41e1	-0.008621664
24	0x3d305a17	0.043054666
25	0x3d1f7497	0.038929548
26	0x3bac9c2e	0.0052676415
27	0x3d0dbdb2	0.034604736
28	0x3d2c0514	0.04199703
29	0x3dc3c1d5	0.09558455
30	0xbbcc8068	-0.006240893
31	0xbb650614	-0.003494625
32	0x3ce8c62a	0.028414804
33	0xbd790954	-0.06079991
34	0xbd9ffbe8	-0.07811719
35	0xbca60f6d	-0.020271027
36	0xbd960c6f	-0.0732659
37	0x3d834496	0.06409566
38	0xbd6d7579	-0.05797336
39	0xbcd3e3ac	-0.025865398
40	0x3d5934ed	0.05302899
41	0x3da8afc2	0.08236648
42	0x3d02a4e5	0.031895537
43	0xbd67881a	-0.05652628
44	0x3d440830	0.04785937
45	0xbd4060de	-0.04696738
46	0x3c53f313	0.012936371
47	0xbc44b660	-0.012006372
48	0xbd4bb805	-0.04973604
49	0x3ca79854	0.020458378
50	0xbda3617a	-0.079775766
51	0x3d687746	0.056754373
52	0x3d94efd9	0.0727231
53	0xbd2d81fd	-0.042360295
54	0xbbb09f84	-0.0053901095
55	0xbc204b66	-0.009783601
56	0x3baa91f2	0.0052053863
57	0x3d6aafb6	0.057296477
58	0x3d6a8f55	0.0572656
59	0xbd3504c2	-0.04419399
60	0xbd9ff83d	-0.078110196
61	0xbd899bd7	-0.06719177
62	0x3d9f97cd	0.077926256
63	0xbc487ea3	-0.012237224
64	0xbd5abf9b	-0.053405385
65	0xbd6283d9	-0.05530152
66	0x3d22b1b3	0.03972025
67	0x3d4e859c	0.05042039
68	0xbcc811a8	-0.024422482
69	0x3d2793c0	0.04091239
70	0xbbe621ae	-0.007023058
71	0xbd69c9b6	-0.057077132
72	0x3d1d49c0	0.03840041
73	0x3d936ef5	0.07198898
74	0xbb8a574a	-0.0042218314
75	0xbd3cac6c	-0.04606287
76	0xbbbd0afe	-0.0057691326
77	0x3c358ef3	0.011081445
78	0xbbad72c9	-0.0052932245
79	0x3d51bd1f	0.05120575
80	0xbd8570fd	-0.065156914
81	0x3d150625	0.036382813
82	0x3d03dd93	0.03219373
83	0x3da78d61	0.08181263
84	0xbd96f167	-0.073702626
85	0x3d3a3782	0.045463093
86	0xbb7ef656	-0.0038904152
87	0x3d5218dd	0.051293243
88	0x3ca9bbf4	0.020719506
89	0x3d27b54d	0.040944386
90	0x3d40da0b	0.047082942
91	0xbd5473df	-0.051868316
92	0x3d2f86a1	0.042853
93	0xbcb3f497	-0.021967215
94	0x3d8b5b20	0.0680449
95	0xbd73cd49	-0.059521947
96	0xbcf2d5f0	-0.029643029
97	0x3dbedef1	0.093198664
98	0x3b163cfd	0.0022924535
99	0x3c7637f5	0.01502799
100	0x3d8b34e5	0.06797198
101	0xbdac1764	-0.08402899
102	0xbd787d59	-0.060666416
103	0x3d39bf44	0.04534842
104	0x3d4c3b6f	0.049861368
105	0x3d8bf040	0.068329334
106	0xbd4543fb	-0.048160534
107	0x3d9277b2	0.07151736
108	0xbd09aa6d	-0.033609796
109	0x3d9ecbe7	0.07753735
110	0xbce4b0b3	-0.027916288
111	0xbd98ff7d	-0.074706055
112	0x3d4b8389	0.04968599
113	0x3d56b85f	0.052421924
114	0x3d9cdc38	0.07659191
115	0x3d94235f	0.07233309
116	0xbd149ba9	-0.03628126
117	0x3cd2ee4b	0.025748393
118	0x3d0c3afa	0.034235932
119	0x3d370cb2	0.04468984
120	0x3c420777	0.0118426
121	0x3d7c6765	0.061622042
122	0x3d842f51	0.064543374
123	0x3dacc190	0.084353566
124	0x3d9345a6	0.07191019
125	0x3c4a205f	0.012336819
126	0xbd8adaba	-0.0678
127	0xbd0e0c8d	-0.034679938
128	0x3d30496e	0.043038778
129	0xbd72d073	-0.059280824
130	0xbd1332e9	-0.035937224
131	0x3d250d17	0.040295687
132	0xbbc94599	-0.00614233
133	0x3cd6c709	0.026217954
134	0xbda4b049	-0.08041436
135	0xbdebb2c7	-0.115087084
136	0x3d5830ea	0.052781023
137	0x3d1454b3	0.036213588
138	0x3ca1b926	0.019741606
139	0x3d5d82ff	0.054080006
140	0xbd3e9e17	-0.046537485
141	0xbc8d2265	-0.017228315
142	0xbcd184df	-0.025576053
143	0x3d088800	0.033332825
144	0x3cba6275	0.022752026
145	0xbdc34d3e	-0.09536217
146	0xbdbb21fa	-0.0913734
147	0xbda96502	-0.08271219
148	0xbca615c3	-0.020274049
149	0xbd904d2c	-0.07045969
150	0x3d26790c	0.040642783
151	0x3cc63795	0.024196425
152	0xbd96cc16	-0.07363145
153	0x3cd3ba3f	0.025845645
154	0x3ccc4b29	0.024938183
155	0x3d518e21	0.051160935
156	0x3d1fb049	0.038986478
157	0x3d63ffb8	0.055663794
158	0x3cd4db7d	0.025983566
159	0x3c330a9a	0.010927821
160	0xbd617fc2	-0.05505348
161	0x3cf52bcb	0.029928109
162	0xbd638d80	-0.055554867
163	0x3db15b60	0.086600065
164	0xbc6148a0	-0.013750225
165	0xbdec2e96	-0.11532323
166	0xbd8cbee0	-0.06872344
167	0xbd01161a	-0.03151522
168	0xbd0c31e7	-0.034227278
169	0xbdade18d	-0.08490286
170	0xbd051a6a	-0.032495894
171	0xbd9b1ebd	-0.07574222
172	0x3d960830	0.073257804
173	0xbd8ba9bd	-0.068194844
174	0xbde74a53	-0.11293473
175	0x3d2ecdc7	0.042676713
176	0xbc597579	-0.013272637
177	0xbc51d945	-0.012808149
178	0xbd4ecfa9	-0.05049101
179	0xbd936003	-0.07196047
180	0xbdaf9728	-0.08573753
181	0x3d967bd7	0.07347839
182	0xbd8574a1	-0.06516386
183	0xbddd81d7	-0.108157806
184	0xbd9021ea	-0.070377186
185	0x3c0ff6b5	0.008786847
186	0x3d3fd2b8	0.046831816
187	0x3ce0c1d5	0.027436176
188	0xbd8fdca1	-0.070245035
189	0xbb6c2f4a	-0.0036038929
190	0xbd0bbb6c	-0.034114286
191	0xbd7a7eaf	-0.06115597
192	0xbdad46c1	-0.08460761
193	0x3d8101aa	0.062991455
194	0x3d4a73dd	0.049426902
195	0xbd11fcb1	-0.035641376
196	0xbd62f564	-0.055409804
197	0x3c1840a0	0.009292752
198	0x3cbffd5b	0.023436239
199	0x3c54c1a9	0.012985625
200	0xbcc88194	-0.02447585
201	0x3d8fd118	0.07022303
202	0xbbf8d47c	-0.0075936895
203	0xbd19e47b	-0.03757141
204	0xbced7de9	-0.028990703
205	0xbc8423bd	-0.016130323
206	0xbd0627c6	-0.032752775
207	0x3d02c31e	0.03192436
208	0xbd2bd01e	-0.041946523
209	0x3c906d41	0.017630221
210	0xbc18996e	-0.009313924
211	0x3caec0d0	0.021332175
212	0xbc32a328	-0.010903157
213	0xbba02402	-0.004887105
214	0x3cf3ac89	0.029745357
215	0xbddac191	-0.10681451
216	0xbbdb7178	-0.006696876
217	0xbd9e090f	-0.077165715
218	0xbd7f4965	-0.062325854
219	0x3d834901	0.06410409
220	0x3bf995ba	0.0076167258
221	0xbdb9190a	-0.09037979
222	0xbdd37498	-0.10324973
223	0xbd882cf3	-0.066491984
224	0x3c6365ab	0.01387922
225	0x3cd12c62	0.025533859
226	0x3c3fe30b	0.011711846
227	0x3d57342f	0.05254
228	0xbbce997b	-0.0063049174
229	0xbd2561f5	-0.040376622
230	0x3c17f96d	0.009275776
231	0xbce2149c	-0.027597718
232	0xbd67ca02	-0.056589134
233	0xbcb71040	-0.022346616
234	0xbd614cbc	-0.05500482
235	0xbd8184ec	-0.06324181
236	0xbd6408df	-0.055672523
237	0xbb856c0c	-0.004071718
238	0xbda02c86	-0.07820992
239	0x3d39df97	0.045379248
240	0xbd8cea5e	-0.068806395
241	0x3d565ecb	0.052336495
242	0x3d095f5d	0.03353821
243	0x3d7ed939	0.06221888
244	0xbda6d6f0	-0.08146465
245	0xbd8d492e	-0.068987235
246	0xbc6349b5	-0.013872554
247	0xbd821b71	-0.0635289
248	0xbc852e9c	-0.016257577
249	0x3d5a3124	0.05326952
250	0xbc259359	-0.010105931
251	0x3ba211ad	0.004945955
252	0x3cc4ae4b	0.02400889
253	0x3d739e57	0.059477177
254	0x3d423081	0.04740954
255	0xbc252f96	-0.010082146
