best/traffic_gru_weights.pth (torch, 644064 bytes, 16 tensors)

gru.weight_ih_l0 f4 [384, 5]
000000 e5 71 5a bc 1e 07 8f 3b ae c7 b6 bc dd 5f 1a 3c
       -0.013332819 0.004364862 -0.022312012 0.00942227
000010 5b 13 8d bd aa 01 81 bc bd c5 f8 3c 92 7c ae 3d
       -0.068884574 -0.015747864 0.030367726 0.08519854
000020 45 b8 a6 3c d5 8f 18 bd d8 29 8e 3d 66 fc 9d bd
       0.020351538 -0.037246544 0.06941575 -0.07714157
000030 20 4d 9d 3d 8c 4d 23 3d 0f 5c a9 3d 73 d1 5d 3d
       0.07680726 0.039868876 0.08269512 0.054154824
000040 13 bd e9 3a a7 99 c5 bc 94 b3 20 bc 89 16 bd bc
       0.0017832838 -0.024121119 -0.00980844 -0.023082035
000050 26 52 d9 bc db 47 4c bd b9 f6 aa bd d6 28 d2 bd
       -0.02652843 -0.049873214 -0.0834784 -0.10261695
000060 fc e2 dd bd c4 35 4f bd 83 c5 c3 bd c9 04 5e bd
       -0.108343095 -0.050588384 -0.09559157 -0.054203782
000070 bf 19 66 bd cb 42 81 3d 79 2b a4 3d 3a b4 16 3d
       -0.056176897 0.06311568 0.08016104 0.03679297
000080 40 8b 84 3d f1 25 4c 3d d3 ff 83 3d 4c e3 c0 bd
       0.06471872 0.04984087 0.06445279 -0.094183534
000090 cd f1 f6 3d b7 b3 ed bc 2d e9 15 3d e5 1a 83 bc
       0.120578386 -0.029016359 0.036599327 -0.016004035
0000a0 e3 aa 3b 3d 8a d7 d9 3d 63 3c 97 bc ff 83 25 bd
       0.045817267 0.10636814 -0.018461412 -0.040409084
0000b0 d2 21 ea bb e1 4d b1 3c 79 60 9f bc 0d e5 78 3d
       -0.007145145 0.02164358 -0.019455181 0.060765315
0000c0 cd 7b 7d bd 66 55 28 3c 16 ec 1e be c1 9a 24 3e
       -0.061885644 0.010274267 -0.15519747 0.16074659
0000d0 36 62 07 be 73 af 3d bd 55 54 c7 bd 92 93 83 3d
       -0.13221058 -0.0463099 -0.09732882 0.06424631
0000e0 1b 97 4f bc c0 97 9c 3b a7 d0 9a 3d 5b a8 b5 3d
       -0.012670304 0.004778832 0.075593285 0.08870002
0000f0 f2 f5 6b bd 4b 7a b6 bd 1f 39 d5 3b 25 34 65 3c
       -0.0576076 -0.08910044 0.0065070535 0.013989483
000100 85 94 a3 3c b1 cb 92 3d 54 c7 57 3d 05 e6 41 bd
       0.01996828 0.07167757 0.05268033 -0.047338504
000110 29 04 88 bd e0 7c 72 3d fc 22 b1 3d 27 a1 23 bd
       -0.066414185 0.05920112 0.08649251 -0.03994861
000120 a0 29 55 bd 35 6d f6 3c eb cd 8e bd a8 07 52 bc
       -0.05204165 0.03008137 -0.069728695 -0.012819208
000130 37 98 d8 bd 7b 4a 0d 3d 53 6a b6 bc 6f 3f 1e bd
       -0.10575908 0.03449486 -0.022267496 -0.038634714
000140 07 28 c2 bd 96 da 19 bb 88 5c a0 3c 28 2e be bc
       -0.09480291 -0.0023476235 0.019575372 -0.023215368
000150 17 be 34 3d a8 88 4a bc 21 5e 7a bd f9 5f c1 3d
       0.044126596 -0.012361683 -0.061124925 0.094421335
000160 f1 39 98 bd e7 59 9a bc 11 22 9e bd e5 60 d9 3d
       -0.074329264 -0.018841697 -0.077213414 0.10614184
000170 9b e2 03 3d 3f 99 20 bd ae 9d 67 bd 3d 8a 38 3c
       0.03219853 -0.039208647 -0.05654686 0.011263427
000180 e2 09 b6 bc b9 57 63 3c bd e7 6e bd 45 b3 9e bd
       -0.02222151 0.013875895 -0.05832647 -0.07749037
000190 ff 03 e0 bc 24 12 95 3d 6f 30 55 3d 67 4c 5a bb
       -0.027345655 0.07278851 0.052048143 -0.00333097
0001a0 6c a3 93 bd ec 6a 6e 3d d3 a1 b0 3c 87 5d 3a 3d
       -0.072089046 0.058207437 0.021561539 0.04549935
0001b0 c4 f8 88 bc 32 5a e4 bb 38 22 9c 3c 75 c6 58 3d
       -0.016720183 -0.00696876 0.019059286 0.05292364
0001c0 ae 3b 4e 3d 95 d2 a4 bd 7c d7 ed 3c ac 02 0d bd
       0.050349884 -0.08047978 0.029033415 -0.034426376
0001d0 eb 81 8f bb cc 2c 2e bd 76 55 97 bc ac 9d 75 3d
       -0.004379501 -0.04252319 -0.018473368 0.05996482
0001e0 c6 b4 d1 3d 81 e2 35 bc aa 0e 38 bd 2f a6 c8 bc
       0.10239558 -0.011101366 -0.04493586 -0.024493305
0001f0 a8 61 97 3d 2e 22 88 3b fb 23 d3 bd 7b da 14 3d
       0.07391673 0.004154465 -0.10309597 0.03634117
000200 e4 45 70 bd 0b b8 de 3c 57 e8 6c 3c 76 11 1a bd
       -0.058660403 0.027187368 0.014459691 -0.03761431
000210 01 cc 20 bc e2 c6 89 3b dc e7 01 bd 41 84 bd bd
       -0.009814263 0.004204617 -0.03171526 -0.09253741
000220 11 e1 87 3d f7 15 70 3d 15 a4 c3 bd ab d9 d9 bd
       0.06634725 0.058614697 -0.095527805 -0.1063722
000230 39 1d 65 bd ad 8f b5 3d 67 04 b3 3d 7d e0 b7 bd
       -0.055936072 0.088652946 0.08741074 -0.089783646
000240 79 79 87 3c 31 a0 2b 3d bb 8f 54 3d af 55 07 bc
       0.016537415 0.041900817 0.051894885 -0.008260175
000250 8f 36 42 3d 82 0c e6 bc 57 0c 05 be 9e ff 6c 3d
       0.047415312 -0.028082136 -0.12992989 0.057860963
000260 8e e8 91 bd ce 7c 2f bd 42 78 81 bd 05 c7 82 bd
       -0.071244344 -0.042843632 -0.063217655 -0.06385616
000270 af e8 16 3d bd 6a 7b 3d 37 82 8c 3d 34 06 60 3c
       0.036842998 0.06138109 0.06860774 0.013673354
000280 c4 41 85 bd e8 b9 bb bd ab ea d5 3b 98 e5 2e bc
       -0.065066844 -0.09166318 0.0065282187 -0.010674857
000290 50 0b 87 bd 3a e3 44 3d a3 3c 77 bd 8d 4f 40 bc
       -0.065939546 0.048068263 -0.060360562 -0.011737716
0002a0 2b 62 b8 bd f4 57 a9 3c a0 f4 a8 bc 40 c3 99 3d
       -0.09003099 0.020671822 -0.020624459 0.07507944
0002b0 bd f7 13 ba 34 bb a7 bd 11 b6 84 3d 8e 06 9a bd
       -0.0005644521 -0.08190003 0.06480039 -0.075207815
0002c0 f5 13 1a 3d ff c2 57 bd 4d d2 40 3d de 04 b1 3c
       0.03761669 -0.052676197 0.04707556 0.021608766
0002d0 6e 76 60 3d 26 3a 2b bd fa 76 db 3d 00 83 c5 3d
       0.054800443 -0.0418035 0.10716052 0.09644127
0002e0 4d 33 3b 3c 7d 95 e8 bc 92 ec 00 3c 79 61 87 3d
       0.011425805 -0.028391594 0.007868903 0.06610388
0002f0 c8 6c 96 3d d6 6d 9f 3d 95 2b 84 3d 12 98 3b bc
       0.07344967 0.077846214 0.06453625 -0.011449831
000300 d4 93 40 bd e1 d4 66 bd c9 b2 a5 3d 61 45 d0 bd
       -0.04701598 -0.05635536 0.08090741 -0.10169483
000310 5b 71 a0 3c 5b b4 8c 3d 10 f5 b7 bd d4 6a 9d bd
       0.019585302 0.068703376 -0.08982289 -0.076863915
000320 4b 0d af bd 9a dc 38 3d dd 76 c9 3c e6 1b 78 3d
       -0.08547457 0.045132257 0.024592811 0.06057348
000330 31 e4 c6 bb 66 f2 95 bd 37 cf f9 3d 37 bf a0 bd
       -0.006069683 -0.073216245 0.12197726 -0.07848971
000340 0e 48 b7 bd e2 6f b3 3c 20 40 bd 3d 23 73 7a bd
       -0.0894929 0.021903936 0.092407465 -0.06114496
000350 d1 b5 8f bd 4d 3c 04 3c 81 84 c4 bb ba e2 54 3d
       -0.070171006 0.008071017 -0.005997241 0.051974036
000360 29 49 42 3c ee 8f 02 3d 2c 95 34 bd 34 b8 48 3c
       0.011858263 0.031875543 -0.044087574 0.012250949
000370 a8 be 10 3c 85 19 41 3d ff c2 9e bd 9d d8 28 bd
       0.0088345185 0.047143478 -0.07752036 -0.041222204
000380 e0 08 4a bd 66 c8 a2 bc 04 fc c8 3c 81 e2 60 3d
       -0.04932487 -0.019870948 0.024534233 0.05490351
000390 97 29 a6 3d 90 18 a7 3d 5a 62 39 bd 3c f6 25 bd
       0.081134014 0.08158982 -0.04525981 -0.04051803
0003a0 59 c3 27 bc e0 8f 43 3c a0 b3 30 3c e6 14 e3 3d
       -0.010239446 0.011936158 0.010785013 0.110879704
0003b0 f2 3c bd bb 1b b8 7e 3d 0e 41 66 3d ad 1b d2 3d
       -0.0057750875 0.062187295 0.056214385 0.10259185
0003c0 22 e6 08 be 51 e9 a3 3d 3d ba 36 bc 26 16 36 bc
       -0.13369039 0.08003486 -0.011152801 -0.011113679
0003d0 9f 86 8b bd 3b 8b 64 3d 95 a2 95 3b 21 23 91 bd
       -0.06812786 0.055796843 0.0045665004 -0.070867784
0003e0 e0 b1 97 bc 14 8a 91 3d 21 71 21 bd a2 d5 8b bd
       -0.018517435 0.071064144 -0.03941453 -0.068278566
0003f0 e8 d8 a8 3d ad 18 3d 3d 2a c1 83 bd 74 a9 8a 3d
       0.082444966 0.04616611 -0.064333275 0.06770602

gru.weight_hh_l0 f4 [384, 128]
000000 dc 31 80 bd 89 be 1b bd 1b 85 d3 3c f8 ae aa bd
       -0.0625951 -0.038023505 0.025820306 -0.08334154
000010 2b 94 26 bd 65 c4 84 3c 29 4e 03 3d 06 0d 3d bc
       -0.040668648 0.01620693 0.03205696 -0.01153875
000020 43 5f 7e 3d ab ab 98 3c 6f f6 93 3b 6b ce 07 3d
       0.062102567 0.018636545 0.004515461 0.03315584
000030 0b 43 b7 3c 19 9d 98 bd ad b0 b2 bd 16 88 18 3d
       0.022370836 -0.07451839 -0.087251045 0.037239157
000040 f0 9f 73 3d 09 20 1f bd 6e e3 1a bd 65 44 f0 3b
       0.0594787 -0.03884891 -0.03781455 0.007332372
000050 12 ab 98 bd 09 a3 69 3d 12 5f 43 3d ad 96 74 3d
       -0.07454504 0.057040248 0.047698088 0.059714008
000060 90 97 b5 bb 9c 95 bb bc 02 ef 94 bc 75 51 36 3c
       -0.0055417493 -0.022898488 -0.018180374 0.011127819
000070 3a 54 8d bc e4 71 af bd 59 38 35 b9 a0 58 81 3d
       -0.017252076 -0.08566645 -0.00017282496 0.06315732
000080 12 57 bc bd d7 6a 26 3c 48 87 38 3d 45 28 2f bd
       -0.09196295 0.010157309 0.04505089 -0.042763013
000090 a7 2e 8f bd e6 fc 4a 3d bc 0f 92 38 68 f3 c1 bd
       -0.0699132 0.04955759 6.964753e-05 -0.09470254
0000a0 03 fc b9 bd 71 08 81 bc 03 8d cb 3c a6 7a c5 bc
       -0.090812705 -0.015751095 0.024847513 -0.024106335
0000b0 d6 30 c1 3c b6 74 bc 3d 39 e0 89 bb 79 ce 30 3d
       0.023582857 0.09201948 -0.0042076376 0.043165658
0000c0 ee bd 86 3d 21 15 fc bb 43 91 7b bd e9 f6 cf 3c
       0.06579195 -0.0076929484 -0.06141783 0.02538629
0000d0 69 cc 89 3b 96 f4 cb bd 86 9d b9 bd f6 d1 07 bc
       0.004205276 -0.099587604 -0.09063248 -0.008289805
0000e0 aa ca c8 3d cd ec 05 3d 53 ca af bd e7 d6 40 3a
       0.0980428 0.032696534 -0.08583512 0.00073562417
0000f0 8d c3 7a bd 9e af 01 bd f0 4c 9b bd 6c a4 fd bc
       -0.061221648 -0.031661622 -0.07583034 -0.030962192
000100 d6 64 2b 3d d3 a8 6e bd 80 4c a5 3c f5 9e 9e bd
       0.04184421 -0.058266472 0.02017808 -0.077451624
000110 47 ef b2 3d e4 52 00 bd 43 71 e0 3d 52 f7 c8 3d
       0.08737045 -0.03132905 0.10959103 0.098127976
000120 07 e6 0f 3d 3c 21 a3 3c e1 78 6a bd 75 a5 23 3c
       0.03513148 0.019913308 -0.057244185 0.0099881785
000130 b6 a0 9e bb 7e 3f 49 3b 2a b2 8b bc 07 09 68 3d
       -0.0048409356 0.003070801 -0.017052729 0.056649234
000140 4d 74 0d bc 30 89 81 3d d3 ef f1 bc 63 2f 7e 3d
       -0.008633685 0.063249946 -0.029533302 0.06205691
000150 17 a6 86 3d c2 c6 d1 3d 81 e5 de bc c4 a9 66 bc
       0.06574648 0.10242988 -0.027209045 -0.014078561
000160 60 a0 d4 bd a1 99 47 3b 4a e7 d6 3d 4d 40 26 3d
       -0.103821516 0.003045656 0.10493334 0.040588666
000170 33 f2 8f 3d f5 ea 1e bd 96 11 a3 bd 11 6c 0a 3d
       0.07028618 -0.03879829 -0.079623386 0.033794466
000180 83 8f e9 bb ca de 08 bd c2 5c 31 3d 63 db 20 bd
       -0.0071277036 -0.033415593 0.04330135 -0.039271723
000190 e0 c4 4f bd 97 f0 ca bc a6 93 67 3d ac 27 f1 3d
       -0.050724864 -0.024772925 0.056537293 0.11775145
0001a0 37 8f b5 bc 52 9e 19 bd f8 08 22 3d 6f 5e 9c bd
       -0.022163017 -0.0375045 0.039559335 -0.07635199
0001b0 90 4f cf bd ae 0d b7 3d ef 27 f6 3d 53 c9 84 bd
       -0.10122597 0.08938156 0.120193355 -0.06483712
0001c0 40 7e 0b bb ee 02 4e 3d fd 7b bb 3c 28 ae 94 3d
       -0.0021284968 0.050295763 0.02288627 0.0725978
0001d0 f2 d8 26 bd 47 8a 79 3d fc cc 68 bd fa 3f f3 3b
       -0.04073424 0.060922887 -0.056836113 0.007423398
0001e0 8d 5d 20 bd 4e a7 6c 3d 95 97 aa bd 15 cc e9 bd
       -0.039151717 0.05777674 -0.08329693 -0.11415879
0001f0 e5 2f ac 3c 2d 07 1d 3c a0 74 31 3d 5f 86 cd 3d
       0.021018932 0.00958423 0.043324113 0.10035395
000200 aa 5d 9a 3c 01 f8 84 3d 24 6b 30 3d 0e 82 85 bd
       0.01884349 0.064926155 0.043070927 -0.065189466
000210 ef b5 75 3d 60 58 e5 3c 62 cb 5d 3d e2 d5 47 bd
       0.05998796 0.027996242 0.05414904 -0.04878796
000220 cd 0f be bc 00 a9 a5 bd c0 f1 91 3d 70 75 2f 3d
       -0.023200894 -0.08088875 0.07126188 0.042836607
000230 47 3c 7b 3d cd 5c 1b bd 77 43 50 bd 4d 38 c5 bd
       0.06133678 -0.0379303 -0.05084559 -0.09629879
000240 7d 18 35 ba a3 4e 9c bb 19 09 60 3c 44 f8 c7 3c
       -0.0006908251 -0.0047701164 0.013674044 0.024410374
000250 b6 8e c3 bd aa a2 ab bd 32 19 10 bd e0 09 ac bd
       -0.09548704 -0.08380635 -0.035180278 -0.08400321
000260 b2 a4 c7 3c d1 60 a6 bd 3a 18 32 3b 17 6c 62 bc
       0.024370525 -0.08123935 0.0027175085 -0.013819716
000270 a7 1f 55 3d e1 80 8a 3c c3 9f a8 3d 77 7f 01 3c
       0.05203214 0.016907157 0.08233597 0.007903925
000280 4d 19 25 bd ad 7b 1f 3d 0e dc 2d 3d 82 70 40 3d
       -0.04030733 0.038936306 0.04244619 0.046982296
000290 45 81 b9 bc ae 65 03 bd 9f 0f 2d bd 0e 97 57 3c
       -0.022644648 -0.03207939 -0.042251226 0.013158573
0002a0 a0 98 c1 3c 8a 99 0f bd a2 cb d6 bc d0 65 17 3c
       0.023632348 -0.035058536 -0.026220147 0.009240583
0002b0 2b ae df bc fd 14 f2 3c 0a f0 b1 bd 03 45 1e 3d
       -0.02730473 0.029551024 -0.08688362 0.038640033
0002c0 7d 19 af 3c c6 b3 bd bd 43 65 99 3d e5 4a a1 3d
       0.021374458 -0.09262805 0.07490017 0.07875613
0002d0 6a 3b c3 ba 9b 91 df bc 42 97 22 3d d3 00 80 3c
       -0.0014895026 -0.02729111 0.039695032 0.015625393
0002e0 c4 f9 2b bd 59 f1 be 3d a7 fc ad 3d 82 20 73 bd
       -0.041986242 0.09323377 0.08495455 -0.059357174
0002f0 4f 90 82 bc 7c 19 29 bb 76 72 28 3d a1 91 78 bd
       -0.015937952 -0.0025802543 0.041124783 -0.060685758
000300 2f 75 72 3c c4 ad 60 3d 6d 81 69 3b fb 67 1b 3d
       0.014798447 0.054853216 0.0035630122 0.03794096
000310 c8 35 51 bd 3b 70 88 3d 58 53 c8 3b 81 9d 02 bd
       -0.05107668 0.06662031 0.006113451 -0.03188849
000320 ad e4 94 3b 5d fe 64 bd 8c 20 62 bd e9 ca 33 bc
       0.004543862 -0.055906642 -0.05520682 -0.0109736705
000330 b1 5d 66 bc ef 3f 8d bb fe 8d 57 3c 03 88 af 3d
       -0.014060424 -0.0043106 0.013156412 0.08570864
000340 ff 2c c6 bc cd c1 ef 3c 42 73 79 3c 75 61 81 bc
       -0.024191378 0.029267216 0.0152252335 -0.015793541
000350 ff fe 77 bd 31 c1 99 3b f0 77 a2 3d 31 17 b0 bc
       -0.060545918 0.0046922197 0.079330325 -0.021495434
000360 b9 92 5b bd b8 99 a4 3d 93 88 46 bd 7c 0f 21 bd
       -0.053606723 0.08037132 -0.04847009 -0.039321408
000370 24 d6 24 bb 28 dd a4 bc 69 66 54 bd 44 06 50 3d
       -0.0025152052 -0.020124987 -0.05185548 0.050787225
000380 ce 29 96 3d 28 5a a5 bc a0 f3 a6 3c c0 f4 e2 3c
       0.07332192 -0.020184591 0.020379841 0.027704597
000390 fb da 0b 3d 92 69 23 3d c8 a1 53 bc 70 78 1a 3c
       0.034144383 0.0398956 -0.01291699 0.009428129
0003a0 8e 35 10 bc 24 76 89 bd 56 f1 15 bd 81 2d c9 bc
       -0.008801831 -0.06711987 -0.03660711 -0.02455783
0003b0 b6 14 15 bc 12 6c f8 3c f6 a3 7a 3d 28 5c 85 bd
       -0.009099176 0.03032497 0.06119152 -0.06511718
0003c0 38 98 42 3c 01 eb 07 3d b7 f0 84 bd 6c 68 15 3d
       0.011877112 0.0331831 -0.06491225 0.036476538
0003d0 53 d6 89 3c c6 a5 82 bd fb b8 4b bd 65 ac 01 3d
       0.01682583 -0.06379275 -0.049736958 0.03165855
0003e0 66 22 5c 3d 15 9b 24 3c 65 f6 d5 3c d9 a1 b3 bd
       0.053743742 0.01004674 0.026118467 -0.08771104
0003f0 7e 0f a0 bd 6b 5f ea bc c4 6a 62 bc a2 32 1f bd
       -0.07815455 -0.028609952 -0.0138194 -0.038866647

gru.bias_ih_l0 f4 [384]
000000 f3 b2 ad 3d 13 be b1 3d 05 61 fc bc 1f 48 6f bd
       0.084813975 0.08678832 -0.030807981 -0.05841839
000010 c6 fb 97 3d c8 fb 99 bd 16 31 bc bc aa 62 87 3d
       0.07421069 -0.075187266 -0.022972625 0.066106156
000020 8e 64 7b bd 9e 8c 80 3d 00 74 e5 bc 12 13 a9 3b
       -0.061375193 0.062768206 -0.028009415 0.005159744
000030 86 9d 68 bd 14 7a 9b bd 8c 92 63 3d 17 e3 85 3d
       -0.05679085 -0.07591644 0.05555968 0.065374546
000040 5b c2 77 bd ca 9a a5 bc 57 9c ca 3b a7 ee 7e 3d
       -0.060488086 -0.02021541 0.006183188 0.062239315
000050 f0 b1 6c bd 17 29 ea 3c c0 1e a6 3d 28 f0 84 3d
       -0.057786882 0.028584046 0.08111334 0.06491119
000060 b1 63 12 bd 9e 58 9c 3d 0e 82 6a bc a4 49 33 3d
       -0.035739604 0.0763409 -0.014313234 0.0437714
000070 c9 90 41 3c 6f b7 8c 3d e9 79 07 3d f8 9c 3e 3d
       0.011814305 0.06870925 0.033075247 0.046536416
000080 0d 62 a7 3d 53 67 f6 bc 4a b8 21 bd 01 59 a8 bc
       0.081729986 -0.030078566 -0.039482392 -0.020550253
000090 1a 09 c2 3a 9a f0 ad bd 32 83 cb bc 3c 15 87 3d
       0.0014803738 -0.08493157 -0.024842832 0.06595847
0000a0 34 a2 81 bd 5e aa 5b bd c8 c0 25 bd eb af 15 bd
       -0.06329766 -0.05362927 -0.040467054 -0.03654472
0000b0 0f 66 bc bc b1 69 5e 3d 9e 75 a5 3b f5 09 8f bd
       -0.022997884 0.054300014 0.0050494215 -0.06984321
0000c0 a8 e4 d5 3c 37 3f 87 3d 0d 06 31 bb 92 78 9e bd
       0.026110008 0.06603854 -0.0027011663 -0.07737841
0000d0 e3 6e 59 bd 1f d3 23 bd 77 11 f2 3c 46 19 00 bd
       -0.053084265 -0.039996263 0.029549344 -0.031274103
0000e0 4c b9 d2 bb f7 09 06 3d 85 9c 2e bd 9e 3f 63 3d
       -0.0064307805 0.032724347 -0.042629737 0.055480592
0000f0 f1 c7 06 bd 7e dd a9 bc 39 96 14 bc e0 be 7d 3d
       -0.032905523 -0.020735499 -0.009069019 0.06194961
000100 c4 19 0f 3b 06 0c 1d bc 1e c9 31 bd d8 04 66 3c
       0.0021835426 -0.009585386 -0.04340469 0.014039241
000110 1f 14 17 bc 2c ff a0 bd 62 87 f7 3c 79 da 4a bd
       -0.009221106 -0.0786117 0.030215923 -0.049524758
000120 7c 1b e4 bc 35 aa fa 3c f2 2e 6c bd 3d 92 67 bc
       -0.027845137 0.03059874 -0.057661958 -0.014133987
000130 09 19 33 3d b2 73 37 3c ec 17 22 3c f7 1a 1d 3d
       0.043725047 0.0111970175 0.009893399 0.038355794
000140 a3 5a 66 3c 91 87 17 bd a6 3a b8 3d 1d a6 58 3d
       0.014059695 -0.03699452 0.08995561 0.052892793
000150 a4 2b 0b 3d 12 3f 8f 3d 23 5e 62 3b 5d da a0 bd
       0.033977166 0.069944516 0.0034540973 -0.078541495
000160 c9 e0 8c 3d 3c 90 98 3d 61 18 51 3d f3 53 fb 3c
       0.06878812 0.074493855 0.05104864 0.030679679
000170 fa 57 45 bd b6 6c 69 3d e5 31 db bc 6c 01 25 3d
       -0.048179604 0.05698844 -0.02675719 0.04028456
000180 aa 4d 9d bd ed 41 68 bc 33 42 23 bc c2 61 98 bd
       -0.07680829 -0.014175874 -0.009964514 -0.07440521
000190 d4 30 52 3c dc ae 25 bc 65 f1 2d bb 17 5c 50 3d
       0.012829024 -0.0101124905 -0.0026541587 0.050869074
0001a0 36 46 ba 3d b4 ca e7 bc 88 43 2d 3d 76 45 37 bd
       0.09095423 -0.028294899 0.04230073 -0.044743977
0001b0 10 b4 8c 3a 93 a6 8a bd 9c cf 40 3d 00 54 2d 3a
       0.0010734815 -0.06770053 0.04707299 0.0006611943
0001c0 0e 98 89 bd 9f 30 48 3d 53 8e 8d bd 4a e2 39 bd
       -0.06718455 0.048874494 -0.06911912 -0.04538182
0001d0 71 db a1 bd dd 28 ae 3d 67 0e c8 bd ba 09 2a bd
       -0.07903183 0.08503888 -0.09768372 -0.041513182
0001e0 4d a8 19 3d f0 af 74 3d 09 c9 a8 bb 0d fd 5a 3c
       0.03751402 0.0597381 -0.0051509184 0.013365996
0001f0 20 21 08 bd 47 7c 06 3c 36 23 85 3d a6 d3 99 bc
       -0.033234715 0.008208341 0.065008566 -0.01877768
000200 d0 f2 a6 3c 31 8e fe bc 95 ab 4e bd 99 dc de bb
       0.020379454 -0.031073662 -0.050456602 -0.0068011996
000210 8c 0b ed bd d4 b3 ac bd 57 68 58 3d 31 aa 23 bd
       -0.11574468 -0.08432737 0.05283388 -0.03995723
000220 5b 9c 62 bd 0c 18 f6 bd b9 2b 7e bd bb c8 00 be
       -0.055324893 -0.12016305 -0.062053416 -0.12576573
000230 4d d4 28 bd eb 05 4c bd 1b 79 9d bc 04 53 54 3d
       -0.04121809 -0.04981033 -0.019222787 0.051836982
000240 b3 28 4d 3c cd 6f 0b bd 0b 22 86 3a 3f 95 7f bd
       0.0125219105 -0.03404217 0.0010233534 -0.06239819
000250 70 2b 20 3d ea 8c 80 bd cb be 03 bd 31 1d 79 bd
       0.039103925 -0.06276877 -0.032164376 -0.060818855
000260 64 4e 51 be 75 2a 03 3d 73 77 35 bd b4 d1 4f bd
       -0.2044006 0.032022912 -0.04430337 -0.050737098
000270 99 e6 89 bd 17 be f1 bd 56 2f bb bd 91 50 47 3d
       -0.06733436 -0.11803835 -0.09139888 0.04866082
000280 59 f6 f6 bd 73 42 5a 3d 50 c9 ab bd dd 3f 20 39
       -0.12058706 0.053286027 -0.08388007 0.0001528258
000290 2c 99 82 3c 93 5a be bc 85 1a 06 3d 33 e1 a0 bd
       0.015942179 -0.023236549 0.032740135 -0.07855453
0002a0 7b 2f 72 bd 2d a9 75 bc 7f 8b 9b bc 66 11 9a bc
       -0.059127312 -0.014993948 -0.018987415 -0.018807124
0002b0 ae e7 3f bd 38 b2 13 be fa 1b 7f bb a5 d6 30 3d
       -0.046851806 -0.14423454 -0.0038926587 0.04317345
0002c0 01 7b 51 3b e0 b7 8f bc 52 a0 c9 bd a8 47 a5 3d
       0.0031964185 -0.017543733 -0.09845032 0.08070308
0002d0 cd 53 dc bd e3 06 6a bc 33 43 4d bc 71 3d ce bd
       -0.10758171 -0.0142838685 -0.012528229 -0.10070313
0002e0 0e c0 bd bd b2 b2 33 bd 45 34 48 3c ee 06 a1 bd
       -0.09265147 -0.04387159 0.012219493 -0.0786265
0002f0 56 53 93 3d 2b 63 8f bd 8a 1f 8d 3d 24 d6 10 bd
       0.071936294 -0.07001337 0.06890781 -0.03536047
000300 56 c5 59 bd 43 14 ff bd fb 0c b4 bd 0d 04 73 3d
       -0.05316671 -0.124550365 -0.08791538 0.059330035
000310 14 3c a7 3c 2c 87 b8 bd 85 e5 c3 bd f7 b1 d7 bd
       0.02041439 -0.09010157 -0.09565262 -0.10531991
000320 5c 6d 04 bc ee 8a 07 3c ef a9 0f bd 3b 00 1f 3c
       -0.008082714 0.0082728695 -0.03507417 0.009704645
000330 99 47 ce bd 6f 1e ec bd 0e d1 95 3d 00 d1 3a bd
       -0.1007225 -0.11529242 0.07315265 -0.045609474
000340 94 ba df bd bf d6 a6 3d 20 99 83 bd 15 40 ac bd
       -0.10924259 0.08146428 -0.06425691 -0.0841066
000350 b3 2c cf bd 4e 0f 2b 3c 49 ce 23 3d 24 20 25 3d
       -0.101159476 0.010440661 0.03999165 0.040313855
000360 e6 7c 27 bd b0 e4 10 be 92 c6 ec 3c 8c 6e 33 3b
       -0.040890597 -0.14149737 0.02890328 0.0027379123
000370 52 38 61 3d 6a 66 2d 3c b9 b4 11 bd a5 f0 50 bd
       0.05498535 0.010583499 -0.03557274 -0.051010747
000380 27 b2 80 bd aa 6c 2b bd a5 fe ea bd b8 58 11 3d
       -0.0628398 -0.041851677 -0.11474351 0.035485
000390 b3 91 42 bd 05 73 64 3a 2a b7 22 3c 08 a0 c0 bd
       -0.04750223 0.0008714649 0.009931365 -0.094055235
0003a0 b3 3b db bd 4a 71 ba bb 37 82 a5 bc 56 67 1f bd
       -0.10704746 -0.0056897746 -0.020203693 -0.03891691
0003b0 1e 72 18 be bd ac cf 3c 83 ae 84 bd 75 a4 22 be
       -0.14887282 0.025350923 -0.06478598 -0.15883048
0003c0 9d fe 99 bd 3d 01 86 3c 69 b7 42 3c 8c 4a 11 bd
       -0.07519267 0.016358012 0.011884549 -0.035471484
0003d0 bb 42 e6 bd 9a 49 42 bd dd ea c8 bd 37 de ac ba
       -0.112431966 -0.047433473 -0.098104216 -0.0013188784
0003e0 31 c0 90 bd da 7f b2 bd 9e 31 94 bd 98 2d 06 3d
       -0.070679076 -0.08715792 -0.07236026 0.032758325
0003f0 69 4a cb bd 8d cd b6 bc 12 9b 44 bc a8 e3 75 3d
       -0.09926302 -0.022314811 -0.011999862 0.060031563

gru.bias_hh_l0 f4 [384]
000000 12 4a 81 3d 2f 8f d0 39 b5 49 80 bd 75 c2 97 3c
       0.06312956 0.00039779532 -0.062640585 0.018525342
000010 98 36 c3 3d 67 01 0a bc 2c e3 10 3d a3 3f 1a bd
       0.09531897 -0.008423186 0.035372898 -0.037658345
000020 3d f2 8f bd 81 ba 0b 3c 51 3a 2d bd 28 f5 3e bd
       -0.07028625 0.008528353 -0.042291943 -0.046620518
000030 03 33 3b 3d 5b b5 b3 bd 12 2a 88 3d 5e 20 a5 3d
       0.045702945 -0.08774825 0.06648649 0.08062814
000040 5d bd bd 39 23 97 99 3a ee eb 3c bd a8 57 6a bd
       0.00036189976 0.0011718016 -0.046123438 -0.0572125
000050 73 af aa 3b 93 13 42 3d 9f be 9b bc 7e 31 20 3d
       0.0052089035 0.04738195 -0.019011794 0.0391097
000060 c7 17 c5 bc 5a 7c a2 bd 7b a6 b6 bc d2 14 fa 3c
       -0.02405919 -0.079338744 -0.022296181 0.030527506
000070 34 68 a6 3d 39 7a 46 bd 7a 7c a5 bb a9 f5 bc 3c
       0.08125344 -0.048456404 -0.005050239 0.023066359
000080 45 7c 2f bd ea f3 06 bc ec 94 5a bd 29 b4 4d bd
       -0.042843122 -0.008236865 -0.05336468 -0.050220642
000090 ef 32 fb bc c5 42 2f 3d ef 86 fd bc aa c6 7e 3d
       -0.030663935 0.042788286 -0.03094813 0.06220118
0000a0 f4 4a 57 3d f0 02 b1 3c f8 48 c9 3d 8b f7 ec bc
       0.052561715 0.021607846 0.09828371 -0.028926631
0000b0 fc 82 ba 3d 8c c7 06 3c 9d 0f 63 bd 85 d9 5f bd
       0.091070145 0.008226287 -0.05543481 -0.054650802
0000c0 b6 28 16 3d d8 68 01 3d 36 b7 83 3d 40 06 86 bd
       0.03665992 0.031594127 0.06431429 -0.06544161
0000d0 61 a0 05 bd 06 0e 19 3d 84 67 2a 3d 37 4f a3 3d
       -0.032623652 0.03736689 0.041602626 0.079740934
0000e0 21 10 cd bd a9 44 77 bc c5 50 84 39 3a e1 13 bd
       -0.10012842 -0.015092053 0.0002523718 -0.036103465
0000f0 8b 40 84 bd a7 a1 c0 bd 8b 4f eb 3c dd 86 ae 3d
       -0.06457623 -0.09405833 0.028724452 0.08521817
000100 db c1 5b bd a6 20 93 3d 59 93 d7 bc 46 59 65 bd
       -0.05365167 0.071839616 -0.026315378 -0.05599334
000110 9b d7 94 3d 81 31 61 bd fd cc 97 3c 3b 5f 87 3d
       0.07267686 -0.05497885 0.018530363 0.06609961
000120 9f c9 d8 3d 0c f4 6b bd 23 93 9f 3d db 0b ca bb
       0.10585331 -0.057605788 0.07791736 -0.006165964
000130 59 35 e2 3d 54 44 9c 3d 6b 2d 27 3d 4c af 1a 3d
       0.110453315 0.0763022 0.0408148 0.037764832
000140 58 4f 03 bd a5 b6 8f bd 31 17 a5 3d 1b 7f ae 3d
       -0.03205809 -0.070172586 0.08061064 0.08520337
000150 49 ee 8c 3b 7b da be 3d 98 4e 91 3d da 8b 2d 3d
       0.0043008667 0.093190156 0.07095069 0.0423697
000160 37 5a a9 3d 13 e4 f5 bc a9 bc 26 bc 72 e7 d3 bc
       0.0826916 -0.03001598 -0.010176816 -0.025867198
000170 e4 41 7d 3d d2 e4 31 bd 73 4f 8d bc 39 a7 b4 3c
       0.061830416 -0.04343111 -0.017249798 0.022052394
000180 2b 15 94 3d 26 17 17 3d 45 f6 32 3d f0 34 83 bc
       0.072306 0.03688731 0.043691892 -0.016016454
000190 db 16 c2 3d e2 a2 fa 3b 08 31 11 3d 2b 1c eb bc
       0.094770156 0.0076488117 0.03544715 -0.028699955
0001a0 a9 bb 8e bc f9 c3 69 bd 9d 9b 07 bb c3 16 b6 ba
       -0.017423468 -0.05707166 -0.0020692118 -0.0013892282
0001b0 bc 5c bb 3d e4 b5 99 3d f5 5a 68 3d c3 dc 81 bd
       0.09148547 0.07505396 0.05672737 -0.06340935
0001c0 04 74 49 bd 5d 15 d3 3a 6a 3e 2f 3d 4f 48 89 3c
       -0.049182907 0.0016104389 0.042784132 0.016758112
0001d0 16 f8 5c 3c 1c c0 b4 3d 41 f6 82 3c 81 e1 b4 bc
       0.013486883 0.088257045 0.015986564 -0.022080185
0001e0 fb 7e ce 3d 33 6a 56 bc 21 b7 c9 bc a8 9e ac 3b
       0.10082813 -0.013086843 -0.024623455 0.0052679367
0001f0 bc 64 0e bd cd fe 68 3d db 6b 9f 3d 70 e5 84 bd
       -0.034764037 0.056883622 0.07784244 -0.06489074
000200 85 31 6f bd 51 74 89 bd c4 c5 cd bd f5 91 ba 3b
       -0.058396835 -0.06711639 -0.100474864 0.005693669
000210 08 3c 79 bc 26 48 c1 bd fc 73 ab bb 7c 33 50 be
       -0.0152120665 -0.09437589 -0.0052323323 -0.2033214
000220 df c1 ad 3c 27 fd 30 be 35 f3 ad bd bb c5 99 bd
       0.021210609 -0.1728407 -0.08493654 -0.07508417
000230 80 6f 8b bc 39 2c dd bd c4 24 98 bd 03 2b 61 3d
       -0.01702094 -0.107994504 -0.074288875 0.05497266
000240 83 cf 8f bc 89 95 e0 bd 05 21 97 bd b5 ba 8b bc
       -0.017555004 -0.109660216 -0.07379345 -0.017056802
000250 b8 a5 a1 bc 8d f3 3c 3d 5e 34 25 be d9 7b 72 bd
       -0.019732341 0.046130706 -0.16133258 -0.05920014
000260 79 05 4d be 63 24 32 3d f0 9f d5 bd 6a 5d a5 bd
       -0.20021619 0.043491732 -0.10430896 -0.08074458
000270 df 44 0c bd de da 8f bd 2c 1c f7 bc a3 e2 d3 3c
       -0.034245368 -0.070241675 -0.0301648 0.025864905
000280 b8 6c a1 bc ce 36 82 3c 52 e4 7d 3b ca a8 e9 bd
       -0.019705161 0.015895274 0.0038740826 -0.11409147
000290 b4 54 24 3d 3d 32 dc bc d1 08 55 bd 1c 56 d8 bd
       0.04011984 -0.026879424 -0.05201036 -0.10563299
0002a0 0d cc 18 be 63 62 a6 bc 37 e3 27 bd 81 75 83 bd
       -0.14921589 -0.020310586 -0.040988173 -0.064188965
0002b0 f7 36 0e bd 37 30 45 3c 10 5c 84 3d 05 1f d5 3c
       -0.034720387 0.012035421 0.06462872 0.026015768
0002c0 a3 d1 5f bd 1f 3b 30 3d ee a7 0e be af ed 25 3d
       -0.054643285 0.043025132 -0.13931248 0.040509876
0002d0 f8 a9 94 bd 3b 1b e7 3c aa e9 a2 3d 7d 9e 8e bd
       -0.072589815 0.028211227 0.07954724 -0.06963823
0002e0 16 28 37 bd 91 b8 cf bd 11 ad 33 3c 86 84 74 bd
       -0.044715963 -0.10142625 0.010966555 -0.059696697
0002f0 bc e9 9a bd 61 0c 5c 3d 9b c2 39 3d ec 0a ea 3b
       -0.075641125 0.053722743 0.045351606 0.0071424153
000300 fa df b8 bd b0 df 9b bd 90 f4 ad bd 2e 2a a7 3d
       -0.09027095 -0.076110244 -0.08493912 0.08162342
000310 ac aa de bd 00 db 16 bd 44 c0 7b bd ba 9b 1e be
       -0.10872397 -0.03682995 -0.061462656 -0.15489092
000320 42 76 c5 bd df e3 0a 3d bb 95 2a bd c7 27 29 bb
       -0.096416965 0.03390872 -0.0416467 -0.0025811063
000330 38 3d 92 3c 5f 44 dc bd 8b cf b5 3d 89 89 91 bd
       0.017851457 -0.10755228 0.08877476 -0.07106311
000340 dd 4e 19 bc 63 6f ad 3c 35 3e a1 bd 73 b8 24 be
       -0.009357181 0.021171277 -0.07873193 -0.16085987
000350 74 a8 1b 3d 8e b3 09 be ee e5 ca bb b1 fe 9a 3d
       0.038002446 -0.13447401 -0.0061919605 0.0756811
000360 e8 4b 08 be 19 5f 0c be 10 9e ba bd c3 bf 45 3d
       -0.13310206 -0.13708152 -0.09112179 0.04827858
000370 22 76 40 bd 5e 33 1c bd e6 e2 81 3d b8 4a ad bd
       -0.04698766 -0.038134925 0.063421056 -0.08461517
000380 6f e9 14 3d 58 87 6d 3c 76 29 1a 3b d4 da 8c bd
       0.036355432 0.0144976005 0.0023523248 -0.06877676
000390 62 20 26 bd dc 07 8c bb 7a e7 cf 3c 4a a5 d0 bd
       -0.040558226 -0.004273398 0.025378931 -0.101877764
0003a0 5b b4 78 3d 7e 02 a2 bd b1 89 0e be 00 3d 43 3d
       0.060718875 -0.079106316 -0.13919713 0.047665596
0003b0 a3 9a 42 bd 75 45 d3 bc 93 d0 de bc 95 d8 02 be
       -0.047510754 -0.025789956 -0.027199065 -0.12777932
0003c0 5e cd f0 bd c9 40 03 be 55 2f 76 bd 1b ff 25 3d
       -0.11757921 -0.12817682 -0.060103733 0.04052649
0003d0 69 ed 9b bd 11 e3 0c be 00 ce 7f bd 86 2a 9d bc
       -0.07613642 -0.13758494 -0.062452316 -0.019185316
0003e0 42 4c 29 be e8 f2 72 bd 30 49 88 bc c8 67 18 3d
       -0.16532996 -0.059313685 -0.016636461 0.03720835
0003f0 30 ff 05 be 29 d8 6e bc 98 69 a0 3c ad 1b 3b 3c
       -0.13085628 -0.014577904 0.019581601 0.011420173

gru.weight_ih_l1 f4 [384, 128]
000000 20 08 0d bc 16 48 61 bc 67 94 2b 3d 66 f1 39 bc
       -0.008607894 -0.013750097 0.041889574 -0.011349058
000010 ef 21 91 bd 44 ee bb bc ba 03 1e 3b ef da a3 3d
       -0.070865504 -0.022940762 0.0024111108 0.08000743
000020 17 99 39 bc 4b 12 98 3b 76 5a 90 3d 61 84 25 bd
       -0.011328003 0.0046408526 0.07048504 -0.04040945
000030 9d e8 9d 3c 6a 99 b0 bd 9f 05 b6 3c f0 04 b0 bd
       0.019275958 -0.086230114 0.022219477 -0.08594692
000040 cc 8b 7a bd 2b 27 28 3c 36 96 26 bd 50 83 82 3c
       -0.061168477 0.010263245 -0.040670596 0.015931755
000050 88 39 6d 3c a6 10 07 3c 80 f3 43 bd c0 93 75 bd
       0.014479049 0.008243715 -0.04783964 -0.05995536
000060 2e 29 ca 3d b6 fa 5f bd 8a 13 9f 3d dc 22 77 bd
       0.09871136 -0.054682456 0.07767399 -0.06033598
000070 ba 04 92 3d 35 7a 88 3a 6e dc ff bb 12 b2 bd bc
       0.07129808 0.0010412397 -0.0078082597 -0.0231562
000080 4f 39 6c 3d f2 21 26 bd 93 d9 ab bd 30 30 aa bd
       0.05767184 -0.040559717 -0.08391108 -0.08309972
000090 de 8b 13 bc 07 46 f4 3b 4e 12 30 3d 6f 56 bc bd
       -0.009005515 0.007454637 0.042986207 -0.091961734
0000a0 87 ca 1f 3d be e8 cf 3d 8f ee 80 3d 30 1d 33 3d
       0.039011505 0.10151814 0.062955014 0.043729007
0000b0 e3 c4 22 bd a9 f7 04 3d 11 a4 78 bb 52 20 94 3d
       -0.039738547 0.03246275 -0.0037939588 0.07232727
0000c0 64 90 9d bd a4 a9 fd 3c 8f c3 a7 bd 28 ba eb bc
       -0.07693556 0.03096468 -0.08191597 -0.02877529
0000d0 3e 9c 88 3d b3 e6 a2 3d 89 7a 7d bb 37 87 c0 3c
       0.06670426 0.07954159 -0.0038677773 0.023501975
0000e0 88 ac e8 3c 7a 7c 89 bd f0 3f 46 bd d4 40 72 bb
       0.028402582 -0.06713195 -0.04840082 -0.003696491
0000f0 56 0b 3f bd f3 d3 84 bc 50 e7 8f 3d 8e b8 df bb
       -0.04664167 -0.016214347 0.07026541 -0.0068274206
000100 55 fa 4f bc b1 51 2f bd fe ec ac bc 11 a1 41 bd
       -0.012693961 -0.042802516 -0.0211091 -0.047272746
000110 83 22 92 3d 85 85 51 3c a2 f4 96 bc dc 07 d0 3c
       0.07135489 0.012788181 -0.018427197 0.025394373
000120 aa 4b ee 3a a4 4d 63 3d 18 22 93 3a ae d0 e7 bc
       0.0018180509 0.055493966 0.0011225371 -0.028297748
000130 ce 80 54 bd 9d e6 9b bd 6f 1a aa bb 62 f7 94 bd
       -0.05188065 -0.07612345 -0.0051911394 -0.07273747
000140 ff b9 14 3d ce a9 a9 bd cd 33 a8 bc 59 78 f6 bb
       0.036310192 -0.08284341 -0.020532513 -0.007521671
000150 58 8b 95 3d 8c df c5 3c e6 b6 a4 3d 0e f6 a2 bd
       0.07301968 0.024154447 0.080426976 -0.079570875
000160 35 b2 3a bd a8 34 48 bd e5 54 91 bd b0 05 c8 3d
       -0.045580108 -0.048878342 -0.070962705 0.0976671
000170 e9 e3 ba 3d ef 12 9a 3d 0b 45 8d 3d 99 a3 a4 3b
       0.09125502 0.075231425 0.068979345 0.005024385
000180 c9 97 ae bd 43 e9 80 3d 17 68 54 3d 33 8b 5b 3d
       -0.085250445 0.06294491 0.05185708 0.053599548
000190 bf ce 98 3d be 5f 16 3d 09 4b 9c bd 53 ef 5f 3d
       0.07461309 0.0367124 -0.07631499 0.054671597
0001a0 85 db 94 3d a5 1e fb bc 07 f5 27 bc f4 22 53 3b
       0.072684325 -0.03065426 -0.01025129 0.0032216879
0001b0 c7 68 8d 3d 12 7b 64 3d 22 ac af bc 93 1d eb 3c
       0.0690475 0.05578143 -0.021444384 0.028700626
0001c0 0d 4b 81 3d fe 6d 9a bd 37 13 bc 3d 77 8d 28 bd
       0.06313143 -0.075405106 0.091833524 -0.041150536
0001d0 83 21 8b 3c 87 80 93 3c 64 a6 87 bd 2d 20 99 bc
       0.016983753 0.018005623 -0.06623533 -0.0186921
0001e0 72 10 4b bd f7 08 65 3d 81 66 61 3d 1a 46 ea bc
       -0.04957623 0.055916753 0.055029396 -0.02859788
0001f0 f7 67 13 bd 9b 3d a3 bd 96 30 52 3d 4c 2e 34 3d
       -0.03598782 -0.07970735 0.051315866 0.043989465
000200 ef 1a bf bc b8 39 8d bd 30 e2 24 3d 4d 43 1a bd
       -0.023328273 -0.068957746 0.04025477 -0.03766184
000210 c8 46 7e 3d 68 8b 50 3c c2 3b 71 bd e8 e0 00 be
       0.06207922 0.01272855 -0.05889488 -0.12585795
000220 ce 00 64 bb c5 d7 aa 3d 95 c8 1a 3d e9 4d 6b 3c
       -0.0034790519 0.08341936 0.037788946 0.014361837
000230 0c fc 73 bd e6 37 ac bd dd a9 ad 3d f7 ed ce 3b
       -0.059566543 -0.08409099 0.084796645 0.0063149887
000240 80 7a bc 3c d9 fc 30 3d ad d8 6a 3d 4e cc 4e bd
       0.023007631 0.043209884 0.057335544 -0.05048781
000250 f8 7f 7a 3c 92 91 8c bd 46 13 ed bd 81 db cc 3d
       0.015289299 -0.06863703 -0.11575942 0.100028045
000260 db 4f e6 bd 9a 22 d9 3c de 8c a7 3d 3b b6 f7 bd
       -0.112457 0.026505757 0.08181165 -0.120953046
000270 f3 22 b2 bd 58 01 88 3d fd 18 f1 3c 8b 7b 22 bc
       -0.08698072 0.06640881 0.02943086 -0.00991715
000280 4f 8c 41 bd c7 36 fa 3d 16 66 92 3c 44 a8 af 3c
       -0.04725295 0.12217479 0.017870944 0.02144254
000290 53 e8 83 bd 83 b5 6c 3d 71 0e 1b 3d 15 df a4 3d
       -0.06440797 0.05779029 0.03785557 0.08050362
0002a0 eb 8e 3f 3d 2f 27 4a bc 1a a4 1d bd 4a f3 09 3c
       0.046767157 -0.012338444 -0.038486578 0.008419821
0002b0 6c 06 2d bd 13 0f a3 3d a0 45 c2 bc 83 55 21 bc
       -0.042242453 0.079618596 -0.02371484 -0.009847048
0002c0 a2 55 c1 3c 01 43 c5 3d 49 30 85 bc 5b a6 53 3d
       0.023600403 0.096319206 -0.016258376 0.05167232
0002d0 68 89 71 3d d4 ac 52 bd 19 f2 24 3d c3 09 65 bd
       0.05896893 -0.051434353 0.040269945 -0.055917513
0002e0 61 ca 17 3d 2d b3 fd bc b6 4d 37 3c 5a 0b c8 bd
       0.037058238 -0.030969227 0.011187961 -0.0976779
0002f0 8e ab 3c 3a b5 e1 a4 3d 7f 70 8d bd 10 3e 9b 3d
       0.00071971945 0.08050863 -0.069062226 0.07580197
000300 b7 5c a1 bc 23 ef 89 bc b1 10 dc bd 6c 44 f3 3c
       -0.01969753 -0.016837662 -0.10745371 0.029695712
000310 dc 7e 0e bd 84 02 b9 3d f9 2a a8 bd cd ae ee 3b
       -0.03478895 0.09033683 -0.082113214 0.0072840215
000320 3b c7 d6 3d 43 bb 68 3d ce 53 57 bd 60 b4 85 3d
       0.10487219 0.05681921 -0.052570157 0.065285444
000330 f6 b2 46 3d 78 b3 46 ba 62 1e 85 bd 1e 86 9d bd
       0.048510514 -0.00075798435 -0.06499936 -0.076915964
000340 c3 6a 59 bd 2f 79 86 bd 20 54 ba bd 4d a3 a4 bd
       -0.05308033 -0.06566083 -0.09098077 -0.0803896
000350 b3 d6 52 3d 01 d7 9b bc aa f1 5c bd c3 60 b4 bd
       0.051474284 -0.01902342 -0.053941406 -0.08807518
000360 50 55 5a 3d 4e f8 2b 3d fd 08 89 3c b7 48 88 3d
       0.053304017 0.04198485 0.016727919 0.06654494
000370 16 6f 3e bd c1 27 d2 3d 33 99 9c 3d dd 0d 9e 3d
       -0.04649266 0.10261489 0.07646408 0.07717488
000380 b5 14 32 bc a6 b4 44 3d 26 92 c9 3c b9 f0 98 bc
       -0.010869195 0.048023842 0.024605822 -0.018669473
000390 a1 84 c1 3c 4a 74 ff 3c e8 11 df 3c a8 7a cb bd
       0.023622813 0.03118338 0.027230218 -0.09935504
0003a0 f3 26 b7 bd 44 5d 58 bd 03 ea a2 3b 0e af 29 3d
       -0.08942976 -0.05282332 0.004971744 0.04142671
0003b0 3e 89 65 3d f7 84 92 3c 25 53 b9 bd 32 4b 43 3d
       0.056039087 0.017885668 -0.09049062 0.047679134
0003c0 66 9b 98 3d 75 09 0a 3d f9 61 5a bd 80 ab ce bd
       0.07451515 0.033700425 -0.05331609 -0.10091305
0003d0 92 35 c6 bb 24 6f 27 3d 5c 2c 36 bd 4c 20 14 38
       -0.0060488665 0.040877476 -0.0444759 3.531603e-05
0003e0 d6 dc b6 bd de da ab ba 88 af a6 3d bd c7 f6 3c
       -0.0892884 -0.0013111492 0.08138949 0.03012454
0003f0 3b e8 ad bd 09 32 f1 3a 95 24 8a bd ea 9c 00 3d
       -0.0849156 0.0018401752 -0.06745259 0.031399645

gru.weight_hh_l1 f4 [384, 128]
000000 c7 d6 25 bd be ea eb 3c 78 01 6f 3c 41 c6 ab 39
       -0.04048803 0.028798457 0.0145877525 0.00032763372
000010 55 c4 80 3d a0 a0 8b 3d f3 70 72 3d 0d 52 eb 3b
       0.06287447 0.06817746 0.059189748 0.007181412
000020 59 be 5b bd b1 3c 6f 3d a1 db c3 bc f2 48 c8 bd
       -0.053648327 0.05840749 -0.023908438 -0.09779538
000030 64 f5 13 3d a2 f0 21 bd 38 f5 fa 3c 7e 6c c9 bc
       0.036122695 -0.039536126 0.030634508 -0.024587866
000040 06 fd fb 3c 45 8f 07 bd 11 38 56 3d 42 1d a1 3c
       0.0307603 -0.033095617 0.052299563 0.019667272
000050 12 37 6b 3d 1c 23 54 bd 22 28 42 3b 5b e1 00 bd
       0.057425566 -0.051791295 0.0029625972 -0.031464916
000060 66 7f 8c 3d 3a ec 7f 3d a6 7c 97 bd 28 fa 8f bc
       0.06860237 0.062481143 -0.07396822 -0.017575338
000070 52 ef 4e 3c 29 a0 93 bb 18 ea 3d 3c 20 bb 4e bd
       0.012630301 -0.0045051766 0.011591457 -0.050471425
000080 90 7b ab 3d 15 73 9c 3d 74 eb 74 bd ed 68 7d 3d
       0.08373177 0.07639138 -0.059794858 0.061867643
000090 46 34 36 3d 2d 10 18 bd 34 c4 a2 bd 26 e8 b9 3c
       0.044483446 -0.0371248 -0.07947579 0.022693705
0000a0 7b 50 9b 3d 1a 5e 64 3d b1 b2 66 3d 94 0d 5f 3c
       0.0758371 0.055753805 0.056322757 0.013614077
0000b0 e2 b0 68 bc 25 76 5b bc 59 4e 94 bd 24 4a e4 3c
       -0.014202328 -0.013394867 -0.07241506 0.027867384
0000c0 c2 e6 59 3d 99 46 83 bc e0 07 77 bd 23 cd 28 3d
       0.053198583 -0.016024875 -0.060310245 0.04121126
0000d0 83 ca 38 bd d0 d6 80 3d d6 ab 8d bd ea e4 78 bb
       -0.045115005 0.06290972 -0.06917541 -0.003797824
0000e0 4c 7c ac bc b9 4a 1e 3c aa 3d 97 bc 93 5f e9 bb
       -0.021055363 0.00966137 -0.01846202 -0.007121989
0000f0 28 c4 80 bd 28 06 7f 3d 2f 87 93 3b 7d 27 08 bc
       -0.06287414 0.06226173 0.004502199 -0.008310196
000100 81 01 18 bd c5 18 9e 3c 67 30 a3 bd 9d 49 81 bd
       -0.03711081 0.01929892 -0.079682164 -0.06312869
000110 f3 98 ce bd c3 23 72 bd d2 75 c6 bd af 5c a7 3d
       -0.100877665 -0.059116136 -0.09690441 0.08171975
000120 24 a4 86 bd 19 17 aa 3d 2d f5 4c bd 28 2f be 3c
       -0.06574276 0.08305187 -0.050038505 0.023215845
000130 06 8e a3 3d a1 65 c7 3c e7 c6 93 3d 8e 52 50 bd
       0.07986073 0.024340453 0.07215672 -0.05085998
000140 8f 54 15 3d 50 d8 46 3c 5f 36 12 3d 80 ce 6a bb
       0.036457594 0.012136534 0.035696384 -0.003582865
000150 77 bd 83 3d 34 a6 64 bd a6 90 6b bc ed 49 5d 3c
       0.06432622 -0.055822566 -0.014377749 0.013506395
000160 33 c4 01 bd 8c 76 1e bd ce 6d a4 bd e7 31 89 3d
       -0.03168125 -0.038687274 -0.08028756 0.06698971
000170 9f 9a 29 bd 65 39 89 3d 3e 9e 0d 3b 91 46 a0 bd
       -0.041407224 0.067004 0.0021609212 -0.078259595
000180 59 83 36 3d 0b 00 82 bd 79 65 e9 bc 4a 3e 25 3d
       0.044558857 -0.063476644 -0.028490769 0.040342607
000190 19 2b ae bd 59 16 a2 bd 30 bb e6 bc d1 99 06 3b
       -0.08504314 -0.07914419 -0.02816543 0.002053846
0001a0 07 5f c2 bd 0f 2d 87 bb 98 d1 5b bd 37 5e 77 bc
       -0.09490781 -0.0041252444 -0.05366668 -0.015098146
0001b0 ad 50 fb bc d5 0b 68 bd 6c bd 8e bd a7 da 14 bb
       -0.030678118 -0.05665191 -0.06969723 -0.0022713335
0001c0 d8 9d a8 3c c7 ba 44 3d d9 1c 80 3d 23 6c 3e 3d
       0.020583078 0.048029687 0.06255502 0.046489846
0001d0 23 52 a6 3d d2 a1 91 3d f3 35 3f 3d 53 bc 0a 3c
       0.08121135 0.07110943 0.04668231 0.008467752
0001e0 19 72 17 3c 0d 26 e8 3d 22 57 b1 bc 83 b2 38 3d
       0.009243512 0.113353826 -0.021647993 0.045092117
0001f0 90 1e 3e bd 67 57 dd 3d 95 8c 24 3d 54 ad 2c 3d
       -0.046415865 0.10807686 0.040173132 0.042157486
000200 ff 5d 51 bd 17 1d 28 3d 08 70 1f 3d 9c 9a 10 3c
       -0.051115032 0.041043367 0.0389252 0.008825924
000210 19 bb 93 3c eb f6 d8 3d 57 d3 a4 ba 12 c9 b4 3d
       0.018033551 0.10593971 -0.0012575191 0.088274136
000220 c2 01 c9 bc 77 aa c7 3b 6c 38 35 3d 2b 16 74 3d
       -0.024536971 0.006093319 0.04424326 0.059591454
000230 39 9d ab bd a3 8f 58 3d 51 4d 6e bd eb 24 5e 3d
       -0.08379597 0.052871358 -0.058179203 0.054234426
000240 40 29 80 bd e9 67 54 3c 94 d8 89 3d ca ed 88 3c
       -0.06257868 0.012964227 0.06730762 0.01671495
000250 bb fd 93 bc c5 8c 13 bd 04 9c 80 3c 0f 53 7f bd
       -0.018065324 -0.03602292 0.015699394 -0.06233507
000260 25 28 20 bd 03 46 27 3d cc c2 a2 bc 39 25 ac 3d
       -0.039100785 0.040838253 -0.019868277 0.08405537
000270 bd d7 30 bb e2 1f d9 3d 94 84 54 bd 25 d4 bc bd
       -0.0026984059 0.10601784 -0.05188425 -0.09220151
000280 57 92 aa bc 80 09 a0 3b 85 fa a3 bd 45 ac be bd
       -0.020821733 0.004883945 -0.08006767 -0.093102016
000290 f9 5c 50 3d 80 c8 df bc 6f 1f 13 3d e2 ef 32 3d
       0.050869916 -0.027317286 0.03591865 0.0436858
0002a0 2b 44 05 bd 45 66 8e bc e7 b0 94 3d cf c5 93 bd
       -0.032535713 -0.01738275 0.07260304 -0.07215463
0002b0 83 66 21 3c 4e cb 1c bd a6 30 d0 bc 3a b6 0a bd
       0.009851101 -0.038279824 -0.025413822 -0.03386519
0002c0 09 76 23 bc 3a 7f 53 bd 2d 46 50 3c 1c 37 6d bd
       -0.009976872 -0.051635005 0.012712044 -0.057913885
0002d0 a2 9a a2 bd 3c 34 5d bc f7 fb 15 3c 30 ec 24 bd
       -0.0793965 -0.013501223 0.009154311 -0.04026431
0002e0 50 f1 33 bc ac 94 2d bd ac ba 37 bd f5 d8 8f 3d
       -0.010982826 -0.042378113 -0.04485576 0.07023803
0002f0 39 2a 74 3d 1b dc 91 bc 8f 95 34 3d 94 8e a8 bd
       0.05961058 -0.01780515 0.044087943 -0.082303196
000300 b0 a1 83 3d 34 be 82 3c 93 19 e3 bc 05 56 66 bd
       0.06427324 0.015959837 -0.027722156 -0.05623438
000310 91 b1 65 3d 50 d2 44 bc 87 1e 4a bc 10 c2 3a ba
       0.056077544 -0.012013033 -0.01233638 -0.00071242545
000320 3b 1a 52 bc 99 28 a4 bd 4e b9 28 bb f8 f4 96 bd
       -0.012823637 -0.08015556 -0.0025745216 -0.07370943
000330 c2 94 69 3c 50 99 66 bd ec 00 19 ba 9b ea 46 3d
       0.014256658 -0.056298554 -0.0005836624 0.04856358
000340 39 6b 33 bd a0 71 4e 3d 9e d6 9c bc cb 82 d9 3d
       -0.043803427 0.05040133 -0.019145306 0.1062065
000350 96 ba 3e bc 19 f1 39 bd ce 93 18 3d 47 13 8a 3c
       -0.011641165 -0.045395944 0.037250333 0.016854895
000360 67 47 e0 bd 99 f2 ab bd 14 e6 28 3d a0 3b 1a bd
       -0.10951119 -0.08395881 0.041235045 -0.03765452
000370 62 f4 37 3c 80 40 a3 3d ab 70 97 3c 0e fb a0 3d
       0.011227699 0.07971287 0.018486341 0.07860385
000380 b4 17 ab bd 7d ef 07 3c 72 8e 72 bd 2b e0 0e 3d
       -0.083541304 0.008296845 -0.059217878 0.034881752
000390 e0 a6 36 bd 45 46 10 3d c6 b1 c7 bc 07 3a 82 bd
       -0.04459274 0.035223264 -0.024376761 -0.06358724
0003a0 88 4b 9b bc 27 27 99 bd 4f e4 2f bc ce 72 8a 3d
       -0.018956915 -0.07478171 -0.010735585 0.067601785
0003b0 7f 21 91 bc f2 d6 82 3d 60 70 53 bd c9 58 72 3d
       -0.017716167 0.06388654 -0.05162084 0.059166703
0003c0 97 e8 8c bd 9f f2 00 3d 22 55 03 bc cd 6a 8e 3d
       -0.068803005 0.03148138 -0.008015903 0.069539644
0003d0 b7 e8 7a 3d 67 be d3 3c b8 4f 0d 3c 2a 0b d9 bb
       0.06125709 0.025847627 0.008624963 -0.0066236453
0003e0 fe 7c ae 3d b1 f4 95 bd 7c b1 69 3b 55 a1 cf 3c
       0.08519934 -0.07322062 0.0035658767 0.025345484
0003f0 2d f5 ab 3d b9 4c 27 3d ac 13 18 3d bc 79 09 bd
       0.08396373 0.040844653 0.037128136 -0.03356336

gru.bias_ih_l1 f4 [384]
000000 17 e0 a7 bc 79 6b fa bb c4 42 93 3c 8e 49 70 bd
       -0.020492597 -0.0076422063 0.017976172 -0.058663897
000010 cd 81 80 3c e9 6d d6 3b 2e 5e e3 3c c3 25 95 3d
       0.015686894 0.006543864 0.02775487 0.07282593
000020 04 5d b4 bd 66 d3 8d 3b 92 af 43 bd 57 2b 92 3d
       -0.08806804 0.004328179 -0.04777486 0.07137173
000030 1f 70 99 3d 84 1c b2 bd 81 75 c9 ba a2 f9 85 3d
       0.074920885 -0.08696845 -0.0015370102 0.06541754
000040 df a7 af 3d 77 69 67 bd 1a ad 4d 3d 74 a0 cc bc
       0.08576941 -0.056497063 0.05021391 -0.024978854
000050 cf fd a2 bd 1c b3 73 bd a9 44 20 3d ab 75 8a bc
       -0.079585664 -0.059496984 0.03912798 -0.016901812
000060 e0 2d 82 3d f1 7c 0c 3d 49 b6 b3 3c d3 ca 2d 3d
       0.06356406 0.03429884 0.021937506 0.042429756
000070 0c 59 53 3d 9b 51 ee 3d 83 89 f1 bc fd cd 4a b9
       0.051598594 0.11636659 -0.029484516 -0.00019340958
000080 fc 48 dd 3c 12 21 64 bd 77 df 97 bd 7c ea e1 bc
       0.02701234 -0.0556956 -0.074156694 -0.027577631
000090 6a d6 9e bd 8a 7d 93 3d d0 9f 48 bd a8 ee db bc
       -0.0775574 0.07201679 -0.048980534 -0.026847199
0000a0 3f 2b 95 3d b2 e4 a3 3d 01 40 2e 3d 9d 1f 64 bd
       0.07283639 0.080026045 0.042541508 -0.05569421
0000b0 08 0e 19 3d ed 23 55 bd 7a cf 73 3c 4b b6 bd 3b
       0.037366897 -0.052036215 0.014881009 0.0057895533
0000c0 33 89 87 bd f2 2a da 3c 47 1b 8e bd 52 57 46 3d
       -0.066179655 0.026631806 -0.069387965 0.04842312
0000d0 61 21 9f 3d 63 1a 9c bc c5 da 8f 3a fb 0d 28 3d
       0.077700384 -0.01905555 0.0010975233 0.041028958
0000e0 3d 84 f3 3c fd 6a 9c 3d 75 7c 5c 3d 8e 8d 1a bd
       0.029726142 0.07637594 0.05382963 -0.037732653
0000f0 a7 68 96 bd 1a 28 48 bd 48 d3 79 3d 00 6f ff ba
       -0.073441796 -0.04886637 0.06099251 -0.0019488037
000100 a0 2b 15 bd 58 f3 5e bd 1a 8b 3a 3d da eb 91 3d
       -0.036418557 -0.05443129 0.045542814 0.07125063
000110 16 aa e7 bc 11 e0 35 3d 3d 52 a2 bc 27 94 21 bd
       -0.028279345 0.04440314 -0.019814605 -0.03944793
000120 c9 b5 15 3d fd cb 7d 3d 39 0f 0e 3b f8 f6 45 bd
       0.036550317 0.061962117 0.0021676554 -0.04833123
000130 b2 de c5 3c 59 63 a7 3c 90 1d 4f bc cd 5e 58 3d
       0.024154041 0.020433115 -0.012641326 0.052824784
000140 16 70 56 bd 07 6d 4b 3d ba 06 2e 3d d8 84 94 3d
       -0.052352987 0.049664523 0.042486884 0.072519004
000150 b5 cd b0 bd 16 dc 49 3d df d0 48 bb 2a 83 1f 3d
       -0.086329855 0.049282156 -0.0030642075 0.038943447
000160 43 3c e0 3a 47 63 24 3d d1 29 64 3d 94 ef 0c bd
       0.0017107803 0.04013374 0.05570394 -0.034408167
000170 88 42 65 3d 45 9d c1 bc 7a 10 9d 3d 02 9c f2 bc
       0.055971652 -0.023634562 0.07669158 -0.029615406
000180 4f 23 9d bc 03 c3 c2 3d 6e 6b 5f bc 67 50 2e 3c
       -0.019181876 0.09509852 -0.013636453 0.010639287
000190 61 25 6c 3d b5 22 a4 bd 92 c9 72 bd 8a da 4e 3d
       0.057652835 -0.08014432 -0.059274264 0.050501384
0001a0 6a 68 8e 3d 8b 58 6f 3d 8d 72 fb bc 3a 52 90 3d
       0.06953509 0.05843405 -0.03069427 0.070469335
0001b0 5c 82 95 ba 04 e3 c4 3d 82 9b 0f bd 62 e5 72 bd
       -0.0011406648 0.09613612 -0.035060413 -0.059300788
0001c0 11 24 69 3c 9f b5 18 3d 76 32 ad 3d 59 07 94 3d
       0.01422979 0.037282582 0.0845689 0.07227964
0001d0 c2 af 2d bd ba 5e 03 3d c2 4a 29 3d 66 62 24 3d
       -0.042403944 0.03207276 0.04133106 0.040132903
0001e0 49 f1 ac 3c 80 af 74 3d a6 b0 74 3d f4 c4 be 3d
       0.021111147 0.059737682 0.059738778 0.093149096
0001f0 ab 00 a5 3d ab 25 80 3c c3 5b 22 bd 46 e8 06 bd
       0.08056768 0.015642961 -0.039638292 -0.032936357
000200 c7 bd f0 3c 71 0d 90 bd bd 5b f6 bc 1d ef 32 3d
       0.029387368 -0.07033814 -0.030073041 0.043685067
000210 2b 22 31 bd e5 cc ab 3c c8 b1 95 bd ec 50 0d be
       -0.043245476 0.020971725 -0.073093 -0.138004
000220 6b 64 9e 3d 7f c5 50 3d 96 db a0 3c 3d 2b c9 3c
       0.07733997 0.050969597 0.019635957 0.02455675
000230 53 0e 34 bd 83 71 49 bc 54 b4 df bc 78 56 f4 3c
       -0.043958973 -0.01229513 -0.027307667 0.029826388
000240 0d a7 47 3d 57 71 b9 bd 1a f2 ba bd 2d ad 37 bd
       0.048743296 -0.09054821 -0.091282085 -0.044842888
000250 18 10 36 bc 22 ba 65 bd a9 1e 26 3d b1 4a 46 3c
       -0.0111122355 -0.056085713 0.040556584 0.012102769
000260 46 07 91 bd 0f 54 78 3b 78 2b 31 3c 20 03 9f 3d
       -0.070814654 0.00378919 0.010813586 0.07764268
000270 b3 6b 02 3d fe 05 93 3d 26 10 ed 3a 28 a0 20 3d
       0.03184099 0.07178877 0.0018086478 0.039215237
000280 08 44 27 bd 48 6d 1a 3d c7 db 8e bd 1c 4d 1a 3d
       -0.040836364 0.037701875 -0.06975513 0.037671193
000290 05 15 12 bc 79 7d 04 be 7e 13 7f bd b8 39 b9 bc
       -0.008916144 -0.12938489 -0.06227445 -0.02261053
0002a0 cf 58 7f bc d1 c6 9d bd 37 10 e5 bc 25 f1 a6 bd
       -0.015585138 -0.07703937 -0.027961833 -0.081514634
0002b0 e2 95 b2 3d 66 e3 66 bd 71 7f f4 bd bc 84 69 3d
       0.08719994 -0.056369208 -0.1193837 0.05701135
0002c0 19 44 fc bc fd b2 7a 3b 84 0c 0f bd 76 7b 9e bd
       -0.03079419 0.0038253658 -0.034924045 -0.07738392
0002d0 83 7a 90 bd c2 a9 92 3d ff 8a 6a bd 3a 84 d4 bd
       -0.07054617 0.07161285 -0.057261463 -0.10376783
0002e0 26 7b 1a bd 0a dc a5 3c d2 56 22 3d 0b b3 96 3c
       -0.0377151 0.020246524 0.03963358 0.018395921
0002f0 d7 ba 1e bd 1d 80 50 bc 5a 73 82 bc 3a 79 ba bd
       -0.038752403 -0.012725857 -0.015924145 -0.091051534
000300 d6 77 8a bd 17 f3 6a 3d 3e da a3 3d ec 4c 32 bd
       -0.06761138 0.057360735 0.08000611 -0.04353039
000310 fc 3c c8 bd 97 60 fa 3c 0f 46 d4 3c 57 0a 7e 3c
       -0.09777257 0.030563636 0.025912313 0.015505395
000320 b8 c0 9b bc 03 e8 9c 3d b2 2e 96 bc 45 c9 fc bc
       -0.019012794 0.0766144 -0.018332813 -0.030857692
000330 4c 07 30 bd a7 a4 3a 3c 49 ce 91 bc 2e df 21 3d
       -0.04297571 0.011391795 -0.01779856 0.03951948
000340 81 46 07 bd 55 5a 1d 3d b5 75 9f 3c e2 52 8f 3c
       -0.033026222 0.038416225 0.019465307 0.017495576
000350 46 f7 cb bc 40 9a 9c bc 81 36 62 3c e7 a3 de bd
       -0.024898183 -0.01911652 0.01380694 -0.10871106
000360 bf 82 44 3c 79 0d a6 bd 4f da 62 bd 2f b0 8f 3d
       0.011994063 -0.081080385 -0.055383977 0.07016026
000370 4c e7 9e 3c d7 1a 99 bd 11 db dd bd 5b 01 d2 bc
       0.0193974 -0.074758224 -0.10832799 -0.025635412
000380 53 72 79 3d 23 61 12 3d 8b b4 f8 3b 54 ec 8c 3d
       0.060900044 0.035737168 0.007589882 0.068810135
000390 25 ed 39 3b 70 3d 71 bd 78 d1 9e bc ec 6a 1f bd
       0.002837011 -0.058896482 -0.019386992 -0.038920328
0003a0 a2 5a 55 bd 5c d8 68 bd e8 fc 59 bd 3f ff a9 bd
       -0.052088387 -0.05684696 -0.053219706 -0.083006375
0003b0 ca c3 76 bd 2a 4c 92 3b c1 1d b3 bd 8c 3a 36 3d
       -0.060245313 0.004464646 -0.087459095 0.04448943
0003c0 28 ef 71 bd 5d 2f 83 3d 15 1a 0a 3d 92 1d 9b 3d
       -0.059065968 0.06405518 0.03371628 0.075739995
0003d0 a9 d9 cd bd 37 dc 80 bd 5c 60 26 bb 6f fb 9b bd
       -0.10051281 -0.06292003 -0.0025387025 -0.076163165
0003e0 27 16 c0 bc fa 23 18 3d 0a 20 01 bd 01 d6 cd 3c
       -0.023448063 0.037143685 -0.031524695 0.02512646
0003f0 92 ea d2 3c 00 5f 29 3d 01 77 9d 3d 4a 40 d5 bc
       0.025746617 0.041350365 0.07688714 -0.026031632
